results/models/best_deeponet.pth (torch, 527342 bytes, 13 tensors)

bias f4 [1, 246]
0	0xbbec1282	-0.0072043547
1	0x3c0321ae	0.008003635
2	0xbb28c170	-0.0025750063
3	0xbbcfb25f	-0.006338402
4	0xbb368d7c	-0.0027855327
5	0xbbfd41ca	-0.00772879
6	0x389bc991	7.4285206e-05
7	0x3af48540	0.0018655434
8	0x3a4c59de	0.00077953737
9	0xbb260b78	-0.0025336426
10	0x3b03d2dc	0.0020114696
11	0xbbfac9e4	-0.007653462
12	0xb9975392	-0.0002886323
13	0xb98abf28	-0.00026463834
14	0xbbec0eeb	-0.007203927
15	0xbb8470ff	-0.0040417905
16	0xbb0f9777	-0.0021910348
17	0xbb0665f3	-0.0020507544
18	0xbc1e473e	-0.00966054
19	0x3b56915d	0.0032740452
20	0xbb1b4701	-0.0023693445
21	0xbaaeeedd	-0.0013346333
22	0xbb623df5	-0.0034521793
23	0x3b50b00c	0.0031843213
24	0xbba41539	-0.0050074128
25	0x3b0b6c16	0.002127414
26	0xbbb8edb4	-0.005643571
27	0xbb5f913e	-0.003411367
28	0xbbdebb8c	-0.0067972597
29	0xbc19b8f2	-0.009382473
30	0x3b31c878	0.0027127545
31	0xbb385965	-0.0028129455
32	0x3c3a5817	0.011373541
33	0xba272410	-0.0006375918
34	0x38ee6c87	0.00011368939
35	0xbb179ae7	-0.00231331
36	0x3bb5e084	0.005550446
37	0x3b2df486	0.0026543452
38	0xbb6a4c1a	-0.0035750926
39	0xbba70480	-0.005096972
40	0x3bd45489	0.006479804
41	0xba270d8f	-0.0006372565
42	0x39bb5264	0.00035728805
43	0xbc0b6578	-0.008508079
44	0x3b74bcb0	0.0037343912
45	0x39d3f798	0.00040429528
46	0x3b73c7d4	0.0037197964
47	0xba64d278	-0.0008728872
48	0x3be3341d	0.0069337026
49	0x3ac0eb5d	0.0014718581
50	0xbba38740	-0.0049904883
51	0x3bb81610	0.0056178644
52	0xba8e133e	-0.0010839475
53	0xba6d7940	-0.00090589
54	0x3a88f0e8	0.0010447772
55	0xbbac1f56	-0.005252759
56	0x3c066470	0.008202657
57	0x3b7299ed	0.0037018016
58	0x3b12ef74	0.0022420557
59	0x38af0e38	8.347299e-05
60	0xbaba0622	-0.0014192502
61	0x3bb7311f	0.0055905725
62	0x3b8dc80a	0.004326825
63	0xbb1f4556	-0.0024302802
64	0x3b42dd55	0.0029733975
65	0x3b266d75	0.0025394831
66	0x3b65fe24	0.0035094107
67	0x3acff7d5	0.0015866706
68	0xbba1b7cd	-0.004935241
69	0x3b556400	0.0032560825
70	0x3b427b4e	0.0029675546
71	0xbba66cc9	-0.005078886
72	0xbb67506d	-0.003529574
73	0x3b060b0e	0.0020453366
74	0xbb48618f	-0.0030575728
75	0x3aa544b9	0.0012608982
76	0xbb84093f	-0.0040294225
77	0xb95061c3	-0.00019872845
78	0xbb97f5dd	-0.0046374635
79	0xbc01a340	-0.007912457
80	0xb926963f	-0.00015886965
81	0x3a435eba	0.0007452775
82	0xbba731c6	-0.005102369
83	0xbb94a2dd	-0.0045360164
84	0xbbf55d2a	-0.0074879127
85	0x3b060bcb	0.0020453807
86	0xba0c4c1d	-0.0005351918
87	0x3c0719dc	0.008245911
88	0xbb63ca8c	-0.0034758179
89	0x3a96a574	0.0011493401
90	0x3b13ba15	0.0022541333
91	0xbbf8ca93	-0.007592508
92	0x3a47fcb0	0.0007628901
93	0xbb1765dd	-0.0023101487
94	0xbb7a4070	-0.003818538
95	0xbb2b88f7	-0.0026174167
96	0x3be7ded0	0.007076122
97	0x3b019621	0.0019773322
98	0x3bf030c9	0.0073300344
99	0xb80245b0	-3.1059317e-05
100	0x3b205a6a	0.0024467953
101	0x3b76159c	0.0037549501
102	0x39d26212	0.0004012739
103	0x3a0312d6	0.000500006
104	0xbb0a874a	-0.0021137767
105	0x3a42eff4	0.00074362685
106	0x3a98f8fa	0.001167088
107	0x3c41b124	0.011822019
108	0x38f0cf6e	0.000114827286
109	0xbb9af99d	-0.0047294633
110	0x3a8d4c2b	0.0010780146
111	0x3aaf9cc0	0.0013398156
112	0x3aaee80d	0.0013344303
113	0x3b0e2ec5	0.0021695357
114	0xb9d87903	-0.0004128889
115	0x3badd385	0.005304756
116	0xbbadc111	-0.0053025563
117	0x3ad73780	0.0016419739
118	0x3aff3d8c	0.0019473298
119	0x3b854e1a	0.0040681483
120	0xbaf6645b	-0.0018798219
121	0xbb730371	-0.0037080909
122	0xbc76f6cd	-0.01507349
123	0x39e782b2	0.0004415713
124	0xbbee50b0	-0.0072728023
125	0xb9777d16	-0.00023602354
126	0xbb05a236	-0.0020390875
127	0x3a9c9e8e	0.0011949108
128	0xbba2e4f2	-0.00497114
129	0x3993381a	0.00028079824
130	0x3b34922e	0.002755295
131	0x3aab9f2c	0.0013093702
132	0xbae11236	-0.0017171565
133	0xbaa9d807	-0.0012958058
134	0xbb750656	-0.003738781
135	0x3a39b013	0.0007083427
136	0x3ba6a04f	0.0050850282
137	0x3b8547d8	0.0040674023
138	0x3b16bce1	0.0023000764
139	0x3b8e3c58	0.0043406896
140	0xbb57ebb2	-0.0032946882
141	0xbb79ae48	-0.0038098264
142	0xbae8740a	-0.0017734778
143	0x3ba2a9d4	0.0049640927
144	0xbbc03aa9	-0.005866368
145	0xbb048019	-0.0020217954
146	0xbac67a1b	-0.0015142591
147	0xbba6027d	-0.0050662146
148	0x3bdf074d	0.0068062902
149	0xbb1a17f0	-0.0023512803
150	0x3996b810	0.00028747367
151	0xbbd12fde	-0.00638388
152	0xba2b1a40	-0.0006527044
153	0x3a853849	0.0010163869
154	0xbc002621	-0.007821591
155	0x3b75c05a	0.0037498684
156	0x3c04e15d	0.008110371
157	0x3baa7be8	0.005202759
158	0xbb817d87	-0.0039517316
159	0x3b1ef2a6	0.0024253516
160	0xbba9a068	-0.0051765926
161	0xbb9a75ce	-0.0047137504
162	0x3ba7a1bc	0.005115716
163	0x3a8a0217	0.0010529187
164	0xba3cdb1a	-0.00072042795
165	0xbb51fa77	-0.0032040158
166	0xbbd4547f	-0.0064797993
167	0x3b95a878	0.004567202
168	0xbb88e173	-0.0041772663
169	0xbac3c16c	-0.0014934964
170	0xbb9d3b7f	-0.0047983523
171	0x3b691a1a	0.0035568536
172	0xba7c27ae	-0.000961895
173	0x3708eac0	8.160889e-06
174	0xbb9755fe	-0.0046184054
175	0xb9db32eb	-0.00041808872
176	0x3b642cc3	0.003481672
177	0xbaca0d4c	-0.001541534
178	0xbb5c161d	-0.0033582516
179	0x3bda2970	0.0066577718
180	0x3a918656	0.0011102657
181	0xbb97fd86	-0.0046383766
182	0x37d06cb0	2.4846144e-05
183	0xba756616	-0.000936122
184	0x3b2ed84f	0.0026679223
185	0x3972f48c	0.00023170019
186	0x3a989cea	0.0011643444
187	0x3a61d449	0.0008614702
188	0xbb0a84a1	-0.0021136182
189	0x3c018717	0.007905743
190	0xbb9f81e2	-0.004867778
191	0x3aa53e54	0.0012607076
192	0xbb4a3887	-0.0030856447
193	0x3b3f8ae6	0.0029227077
194	0x3900fa00	0.00012300164
195	0x3b929bee	0.0044741547
196	0x39c0bab7	0.00036760207
197	0xbb0feae1	-0.0021960067
198	0xbb3a6ad6	-0.0028445027
199	0x3b366552	0.0027831388
200	0x3a7760a0	0.00094367005
201	0x3b254f66	0.0025224327
202	0xbabeaf4a	-0.001454809
203	0x3b13eee4	0.002257281
204	0x3bb3a0e4	0.005481826
205	0xbb7d4bbf	-0.0038649885
206	0x3bdac382	0.0066761384
207	0x38a1daa4	7.717803e-05
208	0x3b88dd02	0.004176737
209	0x3a244ce2	0.000626756
210	0xbb86e497	-0.0041166055
211	0x39e7240b	0.00044086608
212	0x3925d576	0.00015815147
213	0x3b674971	0.0035291577
214	0x3a6d2058	0.0009045652
215	0x3b7a5915	0.003820007
216	0x3ac75055	0.0015206436
217	0xb9cdcd4e	-0.0003925361
218	0xb8a8179e	-8.015263e-05
219	0xbba18f21	-0.0049303924
220	0xbbd02882	-0.006352485
221	0x3c0a32d2	0.008434968
222	0x3bb35a2e	0.0054733967
223	0x3b1a76be	0.002356931
224	0x3be757e7	0.0070600393
225	0x3b10945a	0.002206108
226	0x3a7deedd	0.00096867775
227	0x3b2dc70d	0.0026516349
228	0x3bb92f8f	0.0056514214
229	0xbb157504	-0.0022805342
230	0x3aad68bd	0.0013230067
231	0x3be45927	0.0069686356
232	0xba8fb81b	-0.0010964902
233	0xbb5a183a	-0.00332786
234	0x39af263d	0.0003340709
235	0xbb741ec0	-0.0037249774
236	0xbb70656a	-0.0036681541
237	0x3b35202f	0.002763759
238	0x3b440ac0	0.0029913634
239	0xbc13871f	-0.009004383
240	0xba9e5cf9	-0.0012082151
241	0xbc0352a6	-0.00801531
242	0x3a18b5df	0.0005825441
243	0x3a6b2570	0.0008970117
244	0xbb628904	-0.003456653
245	0x3aae0059	0.001327525

branch_net.0.weight f4 [128, 246]
0	0xbd3b9912	-0.045800276
1	0xba0513e0	-0.0005076509
2	0xba1ca8a8	-0.00059760595
3	0x3d207846	0.0391772
4	0xbd02c18d	-0.031922866
5	0x3bbf0579	0.00582951
6	0xbd6af285	-0.05736019
7	0xbd274307	-0.040835407
8	0xbcee77ec	-0.029109918
9	0xbd3b432b	-0.045718353
10	0xbcbfbf82	-0.023406748
11	0x3cd362ab	0.025803884
12	0x3d7180df	0.05896079
13	0x3d5410f5	0.051773984
14	0x3c857962	0.016293231
15	0x3d73855a	0.059453346
16	0xbcd37891	-0.025814326
17	0xbd203c53	-0.03912003
18	0x3d76a4f5	0.06021591
19	0xbd12dc1c	-0.035854444
20	0x3d351c09	0.04421619
21	0xbcda0b23	-0.026616639
22	0xbc0102e5	-0.007874225
23	0xbb026fe7	-0.0019903125
24	0x3d57ce29	0.052686844
25	0xbd6a4ed5	-0.057204086
26	0x3d6d9c60	0.05801046
27	0x3c0ab1be	0.008465229
28	0xbd1297c0	-0.03578925
29	0x3d5e49a8	0.054269463
30	0x3d7f09ee	0.06226533
31	0xbd15cb54	-0.036570862
32	0x3c6766df	0.0141236475
33	0xbd438aef	-0.04773992
34	0x3d721096	0.05909785
35	0xbd4a8b5e	-0.049449317
36	0xbc8ccd20	-0.017187655
37	0x3d476da6	0.048688553
38	0x3d5f58c4	0.054528013
39	0x3c14fe74	0.0090938695
40	0x3c9e858e	0.019350793
41	0xbc0f4ebb	-0.008746798
42	0x3d6e23a2	0.05813945
43	0x3b871d6e	0.0041233813
44	0xbc17dd39	-0.009269052
45	0x3d4d2b08	0.050089866
46	0x3d536fe9	0.051620398
47	0x3d1ad893	0.037804198
48	0x3d402605	0.04691126
49	0x3c032dfa	0.008006567
50	0x3d0ade75	0.033903558
51	0x3d4598fb	0.048241597
52	0x3ca1eeb2	0.01976714
53	0xbca8a2a7	-0.020585371
54	0xbd176b2e	-0.03696745
55	0x3d4a6d4c	0.04942064
56	0x3c580abc	0.013186153
57	0x3d37320e	0.04472547
58	0xbbaccc7f	-0.0052734013
59	0xbd56c0c8	-0.052429944
60	0x3c7303d4	0.014832456
61	0xbb62a0be	-0.0034580673
62	0xbb8e886d	-0.0043497593
63	0x3d0687f7	0.03284451
64	0x3cca7278	0.024712786
65	0xbd44080f	-0.047859248
66	0xbcbca37d	-0.023027176
67	0xbd008598	-0.031377405
68	0xbd13b298	-0.036058992
69	0xbc3315a9	-0.010930457
70	0xbd3b175e	-0.04567658
71	0x3cef55fa	0.029215802
72	0x3d53eb91	0.051738326
73	0xbc036777	-0.008020273
74	0xbd117217	-0.035509195
75	0xbc90326a	-0.017602164
76	0x3c8137cf	0.015773682
77	0x3d436a30	0.04770869
78	0xbb227344	-0.0024787942
79	0xbd4f3b92	-0.05059392
80	0x3cfa43c5	0.030549893
81	0xbd171548	-0.03688553
82	0xbc9d90b3	-0.019234037
83	0xbd2c645c	-0.042087898
84	0x3cc95197	0.024575038
85	0xbd081a47	-0.033228185
86	0x3d2f829f	0.04284918
87	0xbceb6b3c	-0.028737657
88	0x3d630454	0.05542405
89	0x3cb7b4e7	0.022425128
90	0x3bf52656	0.0074813766
91	0x3d275e14	0.040861204
92	0xbd6f6b9c	-0.058452234
93	0x3d2eb38d	0.0426517
94	0x3d1046c9	0.035223756
95	0x3d51825a	0.051149704
96	0x3d02f3ba	0.031970717
97	0xbd2d4fad	-0.042312313
98	0x3d7c04ed	0.061528135
99	0xbc03a8a4	-0.0080358125
100	0x3cee6a4f	0.029103426
101	0xbb6f92d2	-0.0036556018
102	0x3d1a9378	0.037738293
103	0x3d7b9553	0.061421704
104	0xbcae0988	-0.02124478
105	0x3d657403	0.05601884
106	0xbcb1829c	-0.021668725
107	0xbcd21120	-0.025642931
108	0x3d43f95a	0.047845222
109	0xbd1c8f4f	-0.038222607
110	0x3c463b88	0.012099154
111	0xbd16f1f3	-0.036851835
112	0x3cb80733	0.02246437
113	0xbd38141a	-0.044941045
114	0x3d8715ef	0.065959804
115	0x3ccda854	0.02510468
116	0xbd65ef0f	-0.056136187
117	0xbd0a88b6	-0.033821784
118	0xbd4b6b05	-0.04966261
119	0xbd27691a	-0.040871717
120	0x3d044200	0.032289505
121	0x3beb308b	0.0071774176
122	0xbcf85039	-0.03031169
123	0xbd15b9a7	-0.036554005
124	0x3c029a35	0.007971336
125	0xbd141e0a	-0.03616146
126	0x3b535efd	0.0032252662
127	0x3d3d7373	0.04625268
128	0x3d40dedc	0.047087535
129	0xbd2cd2dd	-0.042193282
130	0xbbbd45e5	-0.0057761543
131	0xbc87cacc	-0.016576193
132	0xbd58f76c	-0.052970335
133	0x3d1f06ff	0.03882503
134	0x3c8a4edb	0.016883304
135	0xbd6cc9b5	-0.05780955
136	0xb9992af1	-0.00029214428
137	0xbcf4a785	-0.029865036
138	0x3d42b89c	0.04753934
139	0xbbf78082	-0.007553161
140	0x3ccba51a	0.024859
141	0xbcb07423	-0.021539753
142	0x3d2be412	0.04196555
143	0xbd06d779	-0.032920334
144	0x3c1ffc98	0.009764813
145	0xbcd6e91f	-0.026234208
146	0xbc9c43ff	-0.019075392
147	0x3cf8b012	0.030357394
148	0xbd037503	-0.032094013
149	0xbd21c613	-0.03949554
150	0xbd23b355	-0.039965946
151	0x3d42fbd0	0.04760343
152	0xbd0b8f4b	-0.0340722
153	0x3d32b762	0.04363192
154	0xbd13c135	-0.03607293
155	0xbcb2842a	-0.021791536
156	0x3b9f77ca	0.004866575
157	0xbcde44d2	-0.027132425
158	0x3c2dc94d	0.010607076
159	0x3d70d5b4	0.058797553
160	0xbd40ec7b	-0.047100525
161	0xbd168068	-0.03674355
162	0x3d85d0e2	0.06533982
163	0x3d8ae44e	0.06781827
164	0x3d6a67d6	0.057227932
165	0xbd701a2e	-0.058618717
166	0x3d82e7e3	0.06391885
167	0x3d558dd0	0.052137196
168	0xbd094e81	-0.033522133
169	0x3cafbe60	0.021453083
170	0xbbfea1d6	-0.007770757
171	0x3ce532b9	0.027978288
172	0xbc83fded	-0.016112292
173	0xbd49e07e	-0.049286358
174	0xbd4f7cfe	-0.05065631
175	0x3c9fea39	0.019520866
176	0x3901dec6	0.00012385388
177	0x3d75eb93	0.060039114
178	0xbd2da36f	-0.04239219
179	0x3cf9ee22	0.030509058
180	0x3d32a54b	0.043614667
181	0x3c773404	0.015088085
182	0x3d631ce4	0.055447474
183	0xbc865b02	-0.016400818
184	0x3ccbf340	0.024896264
185	0xbd2a8df7	-0.041639294
186	0x3d86e381	0.06586362
187	0x3d875464	0.06607893
188	0xbc815f7b	-0.015792599
189	0xbd32e614	-0.04367645
190	0x3be2f11d	0.0069257156
191	0x3d3efe1b	0.046629053
192	0xbd1028ce	-0.035195164
193	0xbcf81860	-0.03028506
194	0xbd285c55	-0.04110368
195	0x3d28bd1c	0.041195974
196	0x3c8b89e0	0.017033517
197	0xbd288210	-0.041139662
198	0x3c41549b	0.011799957
199	0xbca9d35d	-0.020730669
200	0xbbda2a20	-0.0066578537
201	0xbca00c93	-0.019537246
202	0xbd6b09ef	-0.05738252
203	0xbd4188c3	-0.047249567
204	0x3c906d0d	0.017630124
205	0x3c808aef	0.015691249
206	0xbd3ee7d9	-0.046607826
207	0x3d79fec3	0.061033975
208	0xbd2bec97	-0.041973677
209	0x3d312549	0.04324845
210	0xbd69f874	-0.05712171
211	0xbc4768d6	-0.012170991
212	0xbd27f38a	-0.04100374
213	0x3cebc703	0.02878142
214	0xb86a2ed5	-5.5833563e-05
215	0xbca8cf2c	-0.0206066
216	0xbc2d8e0e	-0.0105929505
217	0x3c1d6ba9	0.009608188
218	0x3cec4d07	0.028845323
219	0x3cf09f2d	0.029372776
220	0x3b95b680	0.004568875
221	0x3b22aa29	0.0024820662
222	0xbd4f168d	-0.050558615
223	0xbc36a3c7	-0.011147446
224	0x3bd16e9a	0.0063913586
225	0xbd0beb38	-0.03415987
226	0xbd12fb73	-0.035884332
227	0x3ceea372	0.029130671
228	0xbd3bc257	-0.045839634
229	0xbd3d80c3	-0.046265375
230	0xbd0cb652	-0.03435356
231	0xbd187e83	-0.037230026
232	0x39c2ea4d	0.0003717713
233	0x3c7d83b0	0.015473291
234	0xbd27600a	-0.040863074
235	0xbd0acdcf	-0.03388768
236	0xbd676314	-0.056490973
237	0xbd4d9c3c	-0.050197825
238	0xbc9ed949	-0.019390719
239	0xbc4cc6ab	-0.012498538
240	0xbd3d5c44	-0.04623057
241	0x3c743b4f	0.014906718
242	0x3d343e74	0.044004872
243	0xbb33449b	-0.0027354124
244	0x3d7e9f9b	0.06216393
245	0xbd2a809b	-0.041626554
246	0xbd4be3b6	-0.04977771
247	0x3d88dec0	0.06683111
248	0xbcc2eda3	-0.023794955
249	0xbb8156af	-0.003947101
250	0xbce4846a	-0.027895171
251	0xbd26aea0	-0.04069388
252	0xbd117b00	-0.035517693
253	0x3d5a9a19	0.053369615
254	0xbc0ab85e	-0.008466808
255	0xbcecb2d2	-0.028893862

branch_net.0.bias f4 [128]
0	0xbcd8c1a3	-0.02645952
1	0x3d2bb337	0.04191896
2	0x3d4bcfa7	0.04975858
3	0x3d36beeb	0.044615667
4	0x3d41ce52	0.047315903
5	0x3d6a672d	0.057227302
6	0x3c6a2b40	0.014292538
7	0xbc4c6400	-0.012475014
8	0x3d6546cb	0.055975717
9	0xbc0c69cb	-0.008570145
10	0xbc9e4c22	-0.019323412
11	0x3c51699b	0.012781526
12	0x3d4ae744	0.04953696
13	0xbd299bd6	-0.041408382
14	0x3cdd8f23	0.027045792
15	0x3a1140a6	0.00055409444
16	0x3c9a1517	0.018808885
17	0x3c8ac5ef	0.016940085
18	0x3c04442c	0.008072894
19	0x3c3f5eed	0.011680347
20	0xbca91387	-0.020639194
21	0xbd3b5e0c	-0.045743987
22	0xbcc13938	-0.023586854
23	0xbd283123	-0.041062485
24	0x3cd534bc	0.026026122
25	0x3c9d31e8	0.019188836
26	0xbd48cf47	-0.0490258
27	0xbd297260	-0.041368842
28	0xbd4a0784	-0.049323574
29	0xbd642a6c	-0.05570452
30	0x3cac9597	0.021067424
31	0xbd835c92	-0.06414141
32	0x3d7e743c	0.06212257
33	0x3d1bb08b	0.03801016
34	0xbcd56e48	-0.026053563
35	0xbd1afe60	-0.037840247
36	0x3d295e39	0.041349623
37	0x3d2b453a	0.041814066
38	0x3c9f65a3	0.019457644
39	0x3ce197bb	0.027538171
40	0xbcd1592c	-0.025555216
41	0xbd3ba111	-0.0458079
42	0xbd25bbe5	-0.040462393
43	0x3d43d131	0.047806922
44	0xbd4996ee	-0.049216203
45	0xbc3afa2e	-0.011412187
46	0xbd4101c9	-0.047120843
47	0x3ceafc7a	0.028684843
48	0xbbc2fa7b	-0.0059502698
49	0x3d3da563	0.046300303
50	0xbcf17641	-0.029475333
51	0xbc9e1ef8	-0.019301876
52	0x3d11d1d3	0.035600495
53	0xbd4ce861	-0.0500263
54	0xbd0702c6	-0.03296163
55	0x3d8cc502	0.06873514
56	0xbc0a3b02	-0.00843692
57	0xbd3851ce	-0.04499989
58	0xbd156db7	-0.036481585
59	0xbc00bbc1	-0.007857264
60	0x3ce3d5e6	0.027811956
61	0xbd492548	-0.04910782
62	0xbc8ca64e	-0.017169144
63	0xbd70adc8	-0.05875948
64	0x3cda9594	0.026682653
65	0xbd03fb04	-0.03222181
66	0xbd18b7dd	-0.03728472
67	0x3d158b30	0.036509693
68	0xbbe8598a	-0.007090752
69	0xbcf1d889	-0.029522197
70	0xbb468f1f	-0.003029771
71	0xbd0a519c	-0.033769235
72	0x3d06d75a	0.03292022
73	0xbcbad299	-0.022805499
74	0x3a31e700	0.0006786436
75	0xbb67134e	-0.003525931
76	0x3d0f44f1	0.034977857
77	0x3d34141e	0.043964498
78	0xbd6db8c2	-0.058037527
79	0x3d66ce07	0.056348827
80	0xbb68f310	-0.0035545267
81	0xbd02dbdf	-0.031947967
82	0x3d0e213b	0.03469966
83	0xbd46b898	-0.048515886
84	0x3d4222d5	0.0473965
85	0xbb7ffab2	-0.0039059338
86	0xbc97ea37	-0.0185443
87	0x3d60a809	0.05484775
88	0xbbee4336	-0.0072711958
89	0xbca0dd46	-0.019636761
90	0x3d08af90	0.033370554
91	0xbd5517c5	-0.05202462
92	0xbd24bcc0	-0.04021907
93	0x3c9304c5	0.01794661
94	0xbb265c26	-0.0025384515
95	0xbce38ea5	-0.02777798
96	0x3c35947e	0.011082767
97	0xbce32e12	-0.027731929
98	0x3c8cd0c5	0.017189393
99	0x3d561ad0	0.052271664
100	0xbd2d3fdd	-0.042297233
101	0x3c4d55c2	0.012532653
102	0x3b79ebfa	0.0038135038
103	0xbcf57171	-0.02996132
104	0x3c7cc1db	0.015427078
105	0xbc7cedb1	-0.015437529
106	0x3cf40c59	0.029791044
107	0xbcd23590	-0.025660306
108	0x3d2b2d21	0.041791085
109	0xbc266435	-0.010155727
110	0xbd42ece1	-0.047589187
111	0xbcdb514b	-0.026772162
112	0x3bb0c775	0.005394871
113	0x3c2ecdf9	0.010669225
114	0xbd82d926	-0.06389074
115	0x3cefc724	0.029269762
116	0x3d33a186	0.043855213
117	0x3d5e0577	0.05420443
118	0xbcdefa84	-0.027219065
119	0xbd06a196	-0.032868944
120	0x3d6891e7	0.05677977
121	0xbc5722f4	-0.013130892
122	0xbcc345c0	-0.02383697
123	0x3d249870	0.04018444
124	0x3cd69ea3	0.02619869
125	0x3d31e805	0.04343416
126	0xbd38b202	-0.045091636
127	0x3d03482a	0.032051243

branch_net.2.weight f4 [128, 128]
0	0x3d8c9daa	0.068660095
1	0xbdb0eda1	-0.08639074
2	0xbd0a80a5	-0.03381409
3	0x3cf7cb8e	0.03024843
4	0xbc831781	-0.016002418
5	0xbc3e7ff5	-0.011627187
6	0x3d50b159	0.050950382
7	0x3c655cb1	0.01399915
8	0x3d912016	0.07086198
9	0xbd50324b	-0.050829213
10	0x3c038d93	0.008029359
11	0x3d9d6fad	0.07687316
12	0x3cbde4f2	0.023180459
13	0xbd792cc8	-0.060833722
14	0x3d7eabb8	0.062175483
15	0xbcdc9a08	-0.026928917
16	0xbd65bfc9	-0.056091104
17	0x3d0630b4	0.03276129
18	0x3aad93a4	0.0013242853
19	0x3dc802bd	0.09766147
20	0x3cca08e6	0.024662446
21	0xbc92052c	-0.017824732
22	0xbb3d8465	-0.0028918025
23	0xbd338a4a	-0.043833055
24	0x3da5fc31	0.08104742
25	0xbd90f675	-0.07078258
26	0x3cdfbe70	0.027312487
27	0xbb03543b	-0.002003922
28	0xbb632aba	-0.0034662918
29	0x3c94a714	0.018146075
30	0x3d3132f2	0.043261476
31	0x3cc9707f	0.024589775
32	0xbcb960f4	-0.022629239
33	0xbd9e27e2	-0.07722451
34	0x3cb7b110	0.022423297
35	0x3d8e3cd9	0.069451995
36	0xbcd4033a	-0.025880445
37	0x3d30905e	0.04310643
38	0xbd2a7f5e	-0.041625373
39	0xbd9d3593	-0.07676234
40	0x3d359bfa	0.044338204
41	0x3a7a9adf	0.0009559821
42	0xbc4b78a1	-0.012418897
43	0x3ceb1af9	0.028699385
44	0x3d7ac235	0.061220367
45	0xbc22bfb1	-0.009933398
46	0xbda9f18d	-0.08298025
47	0x3da97cff	0.08275794
48	0x3be14a09	0.0068752808
49	0xbcbdc3ab	-0.02316459
50	0xbc1df451	-0.009640769
51	0xbd8fbe86	-0.07018761
52	0xbc2f14c8	-0.010686107
53	0xbc52dbd0	-0.01286979
54	0x3d84295b	0.064532004
55	0x3bbe1950	0.0058013573
56	0xbae18448	-0.001720556
57	0x3dbc320c	0.09189233
58	0xbc660a66	-0.014040565
59	0xbd0c0b58	-0.034190506
60	0x3d257dd4	0.040403202
61	0xbd891811	-0.066940434
62	0xbd122244	-0.03567721
63	0x3d4565db	0.04819284
64	0xbdaf85a5	-0.085704125
65	0x3ca27065	0.019828985
66	0x3d191ce7	0.03738108
67	0xbd993ef3	-0.0748271
68	0xbbe462ab	-0.00696977
69	0xbd49cea9	-0.049269352
70	0x3d33cd4c	0.04389696
71	0x3d46459e	0.048406236
72	0xbdba672c	-0.0910171
73	0x3dad6951	0.08467353
74	0x3d37e2ed	0.044894148
75	0x3d260344	0.040530458
76	0x3d8bcd17	0.06826227
77	0x3d2cc651	0.042181317
78	0x3c5c1f17	0.013435147
79	0x3cc58695	0.024112025
80	0x3d964467	0.073372655
81	0x3bfb9098	0.007677149
82	0xbb60509a	-0.003422773
83	0x3d35e9fd	0.0444126
84	0xbcb8feee	-0.022582497
85	0xbd3be9bd	-0.045877207
86	0x3d0b8345	0.034060735
87	0xbd53018f	-0.05151516
88	0xbc974d2f	-0.018469421
89	0x3d487bf6	0.048946343
90	0x3c1857b2	0.009298252
91	0x3d170d2a	0.03687779
92	0x3a85acbc	0.0010198574
93	0xbd60210c	-0.054719016
94	0xbd30908f	-0.04310661
95	0x3d6990cb	0.05702285
96	0x3da24b1b	0.079244815
97	0xbd8d1bdf	-0.068900816
98	0x3d0237a4	0.031791344
99	0xbd5bf534	-0.05370064
100	0xbd8b23f4	-0.06793967
101	0x3cad9da3	0.021193331
102	0x3d9aa2fb	0.07550617
103	0x3cb12ad3	0.021626865
104	0x3d4016d1	0.04689676
105	0xbd4c681b	-0.04990397
106	0x3d20a6ba	0.039221503
107	0x3cead9a3	0.02866823
108	0x3cc57b5c	0.024106674
109	0x3d95cdec	0.07314667
110	0x3d72cf6b	0.05927984
111	0x3b0a6dbf	0.0021122543
112	0xbd9f657f	-0.07783031
113	0xbc6b57b3	-0.014364171
114	0x3da4672a	0.080274895
115	0x3cb58ba6	0.022161316
116	0x3daec12b	0.085329376
117	0x3d8e34db	0.06943675
118	0xbd469357	-0.048480358
119	0x3d51f81a	0.051262
120	0x3d18363d	0.0371611
121	0x3b59afbc	0.0033216318
122	0xbdb5826e	-0.08862768
123	0xbd2dd01f	-0.042434808
124	0xbc87be35	-0.01657019
125	0xbd43b61c	-0.047781095
126	0x3d14fbd8	0.03637299
127	0xbd0eb39a	-0.03483925
128	0x3d74aa27	0.059732582
129	0x3d23a0f1	0.039948408
130	0xbd7f6d23	-0.06235994
131	0x3db5ce0b	0.0887719
132	0x3d8c5a6a	0.068531826
133	0xbc8e0a6c	-0.017338954
134	0x3d719ffa	0.058990456
135	0x3d81a50c	0.06330308
136	0x3d2ee83e	0.042701952
137	0x3d73c699	0.05951557
138	0x3cdca6b8	0.026934966
139	0xbb973714	-0.00461472
140	0xbd1c93a5	-0.038226742
141	0x3d2e892f	0.042611297
142	0x3c9248e4	0.017857023
143	0xbb0225b8	-0.0019858908
144	0x3cbfc4d3	0.023409283
145	0x3d4d58ec	0.05013363
146	0x3c5b0592	0.013368027
147	0x3d9ca00c	0.07647714
148	0xbd9327e1	-0.07185341
149	0x3c2c44bb	0.0105144335
150	0xbcb097c7	-0.021556748
151	0x3d2ec799	0.04267082
152	0xbc290771	-0.010316716
153	0xbd94c96b	-0.0726498
154	0x3d97615d	0.073916174
155	0xbd2d93b1	-0.042377178
156	0x3c8c9fd7	0.017166061
157	0x3b627dfb	0.0034559953
158	0xbda48780	-0.08033657
159	0x3d438725	0.047736306
160	0xbd4946bd	-0.049139727
161	0x3d686e4c	0.056745812
162	0x3c9ab978	0.018887267
163	0x3d9409f4	0.07228461
164	0xbd9a346e	-0.075295314
165	0x3d487fc1	0.04894996
166	0xbd80ab90	-0.06282723
167	0xbda9e59a	-0.08295746
168	0xbda1c90c	-0.07899675
169	0x3d7a353f	0.061085936
170	0x3cfe33a1	0.031030478
171	0xbd4c68aa	-0.049904503
172	0xbd91acf3	-0.071130656
173	0xbd6cfb90	-0.057857096
174	0x3ce60515	0.028078595
175	0xbd275da1	-0.040860776
176	0xbdaa6375	-0.08319751
177	0x3cfbd361	0.030740442
178	0xbd65a319	-0.056063745
179	0xbd7a2dac	-0.061078712
180	0xbdb25abc	-0.087087125
181	0x3c3ad132	0.011402415
182	0x3da88421	0.082283266
183	0xbd944f9c	-0.07241747
184	0x3d8e65ea	0.06953032
185	0xbcc5d5a2	-0.02414972
186	0xbd13ffa4	-0.03613247
187	0xbbfc306f	-0.0076962034
188	0x3d573472	0.05254025
189	0xbd15aed8	-0.036543697
190	0x3d852d80	0.06502819
191	0xb9624958	-0.00021580362
192	0xbb13e96f	-0.0022569557
193	0xbc95950c	-0.018259548
194	0x3d96e4c7	0.073678546
195	0x3be6dce7	0.0070453766
196	0x3d589ea5	0.05288567
197	0xbd2b4f9f	-0.04182398
198	0x3d930ad4	0.071798
199	0x3d9417e0	0.07231116
200	0x3d3c8b93	0.046031546
201	0xbd64bca5	-0.055843968
202	0x3d310744	0.04321982
203	0xbd8264be	-0.06366871
204	0xbd7657ea	-0.060142435
205	0xbcdcf0d4	-0.026970305
206	0x3d8f20e1	0.06988693
207	0xbd6fbbd4	-0.058528736
208	0x3c925232	0.01786146
209	0x3b9daad6	0.004811625
210	0xbd2092f9	-0.039202664
211	0xbd8e9778	-0.06962484
212	0x3d7abdd3	0.061216187
213	0x3d7bea45	0.061502714
214	0xbd09838d	-0.033572722
215	0xbd9288df	-0.07155012
216	0x3d0fafea	0.035079874
217	0xbd27b5fb	-0.040945034
218	0xbd2700f6	-0.0407724
219	0xbd4bc6e0	-0.04975021
220	0x3d614fc9	0.05500773
221	0x3d9e2b55	0.07723109
222	0xbcd787d5	-0.026309887
223	0x3d8ff4e3	0.0702913
224	0xbd81f64c	-0.063458055
225	0x3d2e0531	0.04248542
226	0x3da81157	0.08206432
227	0x3d956103	0.07293894
228	0x3d965dc5	0.07342104
229	0xbd983458	-0.07431859
230	0xbd9a91d6	-0.07547347
231	0xbd74e8c0	-0.05979228
232	0xbd352190	-0.04422146
233	0xbd8c7194	-0.06857601
234	0x3d88d4bd	0.066812016
235	0xbd855183	-0.06509688
236	0x3d40b42e	0.047046833
237	0xbc785c63	-0.015158745
238	0xbcd1c679	-0.025607334
239	0x3d8c7d15	0.06859795
240	0x3bf77e5b	0.0075529045
241	0xbc412068	-0.011787511
242	0x3d8586ce	0.065198526
243	0xbc8c9b4f	-0.0171639
244	0xbd22c514	-0.03973873
245	0xbcc4fedb	-0.024047306
246	0xbc12113e	-0.008915244
247	0xbd82f839	-0.06395001
248	0xbb8058fe	-0.0039168587
249	0xbd8ddf1f	-0.069273226
250	0xbd90e946	-0.070757434
251	0xbc111aed	-0.008856517
252	0xbd28b5bf	-0.04118895
253	0x3cc19046	0.023628365
254	0x3d8ce421	0.0687945
255	0x3c91e9d1	0.017811688

branch_net.2.bias f4 [128]
0	0x3d671861	0.056419734
1	0x3da61b68	0.08110696
2	0xbd09ccff	-0.033642765
3	0xbd43e089	-0.047821555
4	0x3cd5defe	0.026107308
5	0x3d58f23c	0.052965388
6	0x3ccfd77d	0.025371308
7	0xbda1beb6	-0.07897703
8	0xbd00255b	-0.031285625
9	0x3d020fb1	0.031753246
10	0xbb844294	-0.004036257
11	0x3ce7a02c	0.028274618
12	0xbcd8e81c	-0.026477866
13	0xbda70287	-0.08154779
14	0x3ccd13a6	0.025033783
15	0xbd36687c	-0.044533238
16	0xbd7758ca	-0.06038741
17	0x3d35994b	0.044335645
18	0x3d17b27d	0.037035454
19	0xbd9e2651	-0.07722152
20	0x3cde6206	0.02714635
21	0xbd82fd22	-0.063959375
22	0xbd9da4ed	-0.07697473
23	0xbc40639b	-0.011742498
24	0xbd8337ed	-0.06407151
25	0x3d7f57d7	0.06233963
26	0x3d0d7e1a	0.034544088
27	0x3c0b63c3	0.008507672
28	0x3d992fb5	0.074798025
29	0xbd9113e2	-0.070838705
30	0x3ca0f28c	0.019646905
31	0xbd444624	-0.047918454
32	0xbd2d4ce0	-0.04230964
33	0xbc5c0995	-0.013430019
34	0xbcfdbfd4	-0.03097526
35	0x3caeba61	0.021329107
36	0x3d01ff15	0.031737406
37	0x3d8aad3b	0.06771322
38	0x3d77c4d1	0.060490433
39	0xbd73b8b6	-0.059502326
40	0x3d0f162b	0.03493325
41	0xbd7554d7	-0.059895363
42	0x3d01e30a	0.031710662
43	0x3d803cc4	0.0626159
44	0x3d66c0c5	0.056336183
45	0xbd79bd81	-0.06097174
46	0xbb1e60a2	-0.0024166484
47	0xbc14e68d	-0.009088171
48	0x3d280ccf	0.04102784
49	0x3cfae41f	0.030626355
50	0x3c5cb065	0.01346979
51	0x3d7f6c2c	0.06235902
52	0xbcdad9a3	-0.026715105
53	0xbd01e20e	-0.031709723
54	0x3c2a6e88	0.010402329
55	0x3cac6490	0.021044046
56	0x3ca89667	0.02057953
57	0x3cef39a2	0.029202286
58	0x3d7f953b	0.062398177
59	0x3d83f889	0.06443889
60	0xbd883022	-0.066498056
61	0x3c0b1efc	0.008491274
62	0x3d40aa06	0.047037147
63	0x3d9ca7cd	0.07649193
64	0xbd86a928	-0.06575233
65	0xbd999449	-0.07498986
66	0xbc87db9c	-0.01658421
67	0xbd9d75b4	-0.07688466
68	0x3d895780	0.067061424
69	0x3ce34370	0.027742118
70	0xbcc73456	-0.024316948
71	0x3d81542b	0.06314882
72	0x3cc85d78	0.024458632
73	0xbd867cfd	-0.065668084
74	0x3d1c0cc7	0.038098123
75	0xbaf02cac	-0.001832386
76	0xbd4f5c61	-0.05062521
77	0x3d846a52	0.064655915
78	0x3d9fbae6	0.0779932
79	0x3c80a444	0.015703328
80	0x3d3d18f1	0.046166364
81	0xbcb96a80	-0.022633791
82	0x3d187eea	0.03723041
83	0xbbead3b4	-0.0071663503
84	0x3d7ab624	0.06120886
85	0x3d1cea2c	0.03830926
86	0x3cf8ce45	0.030371794
87	0x3bfa1a7d	0.007632552
88	0xbd42a9de	-0.04752528
89	0x3d0ecb1b	0.034861665
90	0xbc83e318	-0.016099498
91	0xbc0ce0db	-0.008598532
92	0x3d9b13ca	0.07572134
93	0xbc5df70b	-0.013547669
94	0x3ac7f570	0.0015255641
95	0x3dab23e3	0.08356454
96	0x3bf5337d	0.0074829445
97	0x3cce8dfb	0.025214186
98	0x3b5fd459	0.0034153669
99	0x3be1f456	0.006895582
100	0xbdaf487a	-0.08558746
101	0x3d030a43	0.03199221
102	0xbd55db25	-0.052210946
103	0x3ab0bb6c	0.001348359
104	0xbcbb40b7	-0.022858007
105	0x3d0e94b6	0.03480979
106	0xbd09d02a	-0.033645786
107	0x3d2dbcc7	0.04241636
108	0xbd505891	-0.050865714
109	0xbd5e97f3	-0.05434413
110	0x3d31cdf8	0.043409318
111	0x3d2a1322	0.041522153
112	0x3d171154	0.03688176
113	0xbcecc4f1	-0.028902503
114	0xbbe50c0c	-0.0069899615
115	0xbc595c28	-0.013266601
116	0xbbcfe8b6	-0.00634488
117	0xbcd44edd	-0.025916511
118	0xbd906959	-0.070513435
119	0x3d59e5d8	0.05319771
120	0xbd8da55c	-0.069163054
121	0x3d10186d	0.035179544
122	0x3d0eaf1a	0.03483496
123	0x3ca9581a	0.020671893
124	0xbd6b4b5d	-0.05744492
125	0xbc37979c	-0.01120558
126	0x3d777a4b	0.060419362
127	0xbd917111	-0.07101644

branch_net.4.weight f4 [246, 128]
0	0xbd60e99d	-0.05491029
1	0xbda78039	-0.081787534
2	0xbd03f31d	-0.032214273
3	0x3d228274	0.03967519
4	0xbd44bd82	-0.04803229
5	0xbd8a26e8	-0.06745702
6	0xbbc4de60	-0.0060079545
7	0xbd73b349	-0.05949715
8	0xbdafb1d2	-0.085788384
9	0x3d94163b	0.072308026
10	0x3da485e1	0.08033348
11	0x3b904153	0.0044023185
12	0x3cdd2629	0.026995735
13	0xbc605409	-0.013691911
14	0xbb7044b8	-0.0036662053
15	0xbcecd84f	-0.028911738
16	0xbccffe94	-0.025389947
17	0x3d8a3524	0.06748417
18	0xbce5fd8f	-0.028075008
19	0x3cada547	0.021196974
20	0xbd996ae9	-0.074910946
21	0xbc4fd542	-0.012685122
22	0x3d6c7fb1	0.057738964
23	0xbd2590c6	-0.04042127
24	0x3db6b6da	0.08921595
25	0x3d7075a4	0.05870594
26	0xbbe50fd6	-0.006990413
27	0x3c52deda	0.012870515
28	0xbb98be96	-0.0046613915
29	0xbcfd8262	-0.03094596
30	0x3d20bf56	0.039244972
31	0x3ca4e85b	0.020130327
32	0x3d9f0332	0.07764281
33	0x3c78cdf6	0.015185824
34	0x3d194fe3	0.0374297
35	0x3be2939f	0.0069145705
36	0x3c3aa7a2	0.011392506
37	0xbc32b4c7	-0.0109073585
38	0xbd8d3e64	-0.06896666
39	0x3d6c64da	0.057713367
40	0x3d88ad67	0.06673699
41	0xbc8a5962	-0.016888324
42	0xbc902576	-0.017595988
43	0x3d0d1c89	0.03445104
44	0xbcb6ef3e	-0.022330876
45	0xbcfba3ac	-0.030717693
46	0xbda7dc0c	-0.081962675
47	0x3ca7387a	0.020412672
48	0x3d8483a5	0.06470422
49	0xbc0571b2	-0.008144783
50	0xbbc1bb8e	-0.005912251
51	0xbdc27894	-0.09495655
52	0xbcb0f375	-0.021600464
53	0x3d8acfa2	0.06777884
54	0xbd8ae851	-0.06782592
55	0x3d585285	0.05281307
56	0xbdc08a1c	-0.09401342
57	0x3d1edeb9	0.038786624
58	0xbd9fb0e1	-0.07797409
59	0x3da6d85b	0.08146735
60	0xbb5df491	-0.0033867697
61	0xbcefc485	-0.029268513
62	0xbd7b162a	-0.061300434
63	0xbd72eb8f	-0.059306677
64	0x3c10d240	0.00883919
65	0x3dc04c8b	0.093895994
66	0x3c98de87	0.018660797
67	0xbd258847	-0.040413167
68	0xbcf4a693	-0.029864585
69	0xbd117fa2	-0.03552211
70	0xbd817b11	-0.06322301
71	0x3cfd0336	0.03088532
72	0x3d8092b2	0.0627798
73	0xbd890f6b	-0.06692394
74	0x3daa0bdc	0.08303043
75	0x3cb0b97c	0.02157282
76	0xbd7439b9	-0.05962536
77	0x3c85862e	0.016299333
78	0x3cb22773	0.021747326
79	0x39da3332	0.00041618344
80	0x3d2a29eb	0.041543882
81	0x3d3d0620	0.04614842
82	0xbc7e670c	-0.015527498
83	0x3c8320f1	0.016006919
84	0x3d5d8c29	0.054088745
85	0xbd08e9ed	-0.033426214
86	0xbc4efc97	-0.012633464
87	0x3c8a6647	0.016894473
88	0x3dba909b	0.091096126
89	0xbd60253f	-0.05472302
90	0xbcc46499	-0.02397375
91	0x3cacbd66	0.021086406
92	0xbd8deb97	-0.06929701
93	0xbd0b7398	-0.034045786
94	0x3d7412f4	0.059588388
95	0x38ac61d6	8.2198225e-05
96	0xbcded2ca	-0.027200121
97	0xbd04305b	-0.032272678
98	0x3d841b77	0.06450551
99	0x3d63265c	0.055456504
100	0xbd8b7b01	-0.068105705
101	0x3d2c237c	0.042026028
102	0xbb009400	-0.0019619465
103	0x3d904950	0.07045233
104	0x3d516245	0.051119108
105	0xbd443127	-0.047898438
106	0x3d53384e	0.05156737
107	0xbd681516	-0.056660734
108	0xbd96146e	-0.073281154
109	0x3d77202e	0.060333423
110	0x3d497def	0.049192365
111	0xbdc23414	-0.09482589
112	0x3db4a158	0.088198364
113	0x3d431b56	0.04763349
114	0xbd773ea7	-0.060362484
115	0x3d498798	0.049201578
116	0x3cbcf329	0.023065167
117	0x3ba58055	0.0050506988
118	0x3c8051fe	0.015664097
119	0xbc87a8c0	-0.016559958
120	0xbb64a52d	-0.0034888492
121	0xbda6f3ba	-0.08151956
122	0xbdbaba31	-0.091175444
123	0xbcde1939	-0.027111636
124	0x3d868eef	0.06570231
125	0xbd070bd0	-0.03297025
126	0x3cea741c	0.028619818
127	0xbcf598b1	-0.029980035
128	0x3c80e7be	0.015735503
129	0x3d2fcbe1	0.042919043
130	0xbdae30b4	-0.08505383
131	0x3d9755b6	0.07389395
132	0x3d8eedf8	0.06978983
133	0xbc5e41d9	-0.013565504
134	0x3d746503	0.059666645
135	0xbdb2947d	-0.08719728
136	0x3d97235d	0.07379792
137	0xbaf17bce	-0.0018423737
138	0xbd450e11	-0.048109118
139	0xbd3a7ab9	-0.045527194
140	0x3c65ef14	0.014034051
141	0xbbb9683b	-0.005658177
142	0x3aa8a046	0.0012865148
143	0xbda9ba0b	-0.08287438
144	0x3ce49372	0.027902339
145	0xbd4ebc4c	-0.050472543
146	0x3d7eb73c	0.062186465
147	0xbbfe08e0	-0.007752523
148	0xbda90474	-0.082528025
149	0xbd074475	-0.03302427
150	0xbd9c104d	-0.076202966
151	0x3db37cc3	0.08764031
152	0xbd47c106	-0.048768066
153	0x3d82c503	0.06385233
154	0x3d73715d	0.059434284
155	0xbd8693b6	-0.065711424
156	0xbd8dfe80	-0.06933308
157	0xbcd10176	-0.025513392
158	0xbd053d45	-0.032529134
159	0xbcaa1b25	-0.020764897
160	0xbcbd91c3	-0.023140794
161	0x3d9b4107	0.07580762
162	0xbc3f5ebb	-0.0116803
163	0xbdb91b18	-0.09038371
164	0xbc90e4c2	-0.017687205
165	0x3dab640b	0.08368691
166	0xbcf564d4	-0.029955305
167	0xbcd87952	-0.026425038
168	0xbd88f763	-0.0668781
169	0xbd8ac295	-0.06775395
170	0xbd1b2aab	-0.03788249
171	0x3a945fdf	0.0011320076
172	0x3d4423a5	0.047885556
173	0x3d471eb4	0.048613265
174	0x3d5277e3	0.051383864
175	0x3bdb09a8	0.0066845007
176	0x3d2ff658	0.04295954
177	0x3d1fa433	0.038974952
178	0x3bf60982	0.0075084576
179	0xbd75339e	-0.05986368
180	0xbdaae638	-0.08344692
181	0xbda5eaed	-0.08101449
182	0x3ceb239d	0.028703505
183	0x3d06f07f	0.0329442
184	0x3b82d0f7	0.0039921957
185	0xbc81cb09	-0.015843885
186	0x3a8bc001	0.001066208
187	0x3d9afc84	0.07567695
188	0x3d3c4b99	0.045970533
189	0xbc93fcbf	-0.018064855
190	0x3cf6a4a6	0.030107807
191	0x3d15431d	0.036440957
192	0x3cd429ed	0.025898898
193	0xbd82e50a	-0.06391342
194	0x3dafa865	0.085770406
195	0x3d72a254	0.05923684
196	0xbac6755e	-0.0015141179
197	0xbcc8b50a	-0.024500389
198	0x3d37cce8	0.04487315
199	0xbd9029c7	-0.070392184
200	0x3dce6368	0.10077554
201	0xbd07b475	-0.03313108
202	0x3db00074	0.085938364
203	0xbcacf6f4	-0.02111385
204	0xbd549dd8	-0.051908344
205	0xbd26abe8	-0.040691286
206	0x3d9e4e27	0.0772975
207	0xbd9b3fe3	-0.07580545
208	0xbd79fd72	-0.06103272
209	0xbc95acee	-0.018270936
210	0xbd43c963	-0.04779948
211	0xbcedd385	-0.029031524
212	0xbc79e6ad	-0.015252751
213	0xbd1ec67c	-0.03876351
214	0x3dcd86ca	0.100354746
215	0xbcca49c3	-0.024693375
216	0xb9cd7ed4	-0.0003919514
217	0xbd5ef4e9	-0.054432783
218	0x3d748602	0.059698112
219	0x3d7a0b1a	0.061045744
220	0xbd324fa8	-0.043532997
221	0x3d831976	0.06401341
222	0xbdb324ed	-0.087472774
223	0x3dc49e23	0.09600475
224	0x3daf2a9d	0.0855305
225	0xbd8072e5	-0.062719144
226	0xbd6fa273	-0.058504533
227	0x3c64eb6a	0.013972143
228	0xbd8e5cfe	-0.069513306
229	0x3d36074a	0.044440545
230	0xbdaf9a55	-0.085743584
231	0xbd15fbde	-0.036617152
232	0xbcfe1095	-0.031013766
233	0x3dc57fe5	0.096435346
234	0xbd4d10d0	-0.05006486
235	0xbc9975ea	-0.018732984
236	0xbc830ba9	-0.015996771
237	0xbd8f7bf7	-0.07006066
238	0x3d68bddb	0.056821685
239	0x3d9c833c	0.076422185
240	0xbd227c55	-0.039669354
241	0x3c95e330	0.018296808
242	0xba7cc39a	-0.0009642184
243	0x3d9a614e	0.07538091
244	0xbd43797a	-0.04772327
245	0xbd2d5c92	-0.04232461
246	0xbd3e642b	-0.046482246
247	0x3d5e4b5b	0.054271083
248	0xbdc993a8	-0.09842616
249	0x3d879836	0.06620829
250	0xbc66367c	-0.014051076
251	0xbc400de8	-0.0117220655
252	0xbd2b1641	-0.04176927
253	0xbccf7e4b	-0.025328776
254	0xbc416d7f	-0.011805891
255	0xbdbcf6eb	-0.09226783

branch_net.4.bias f4 [246]
0	0x3c491e46	0.012275284
1	0xbd8a1a9d	-0.06743357
2	0x3d7e7592	0.062123843
3	0x3d431180	0.04762411
4	0xbd602571	-0.054723207
5	0xbcfc563b	-0.030802837
6	0x3a9ffe27	0.0012206481
7	0xbc9dccc8	-0.019262686
8	0xbd212e8c	-0.03935103
9	0xbd155383	-0.036456596
10	0x3cb03332	0.021508787
11	0x3d3e0064	0.04638709
12	0xbce617e9	-0.028087573
13	0x3d8e7e74	0.06957713
14	0xbd66edab	-0.056379
15	0x3ca84523	0.02054078
16	0x3ce41df5	0.027846316
17	0xbca1e0db	-0.01976054
18	0x3d8980d5	0.06714026
19	0xbc93efa3	-0.018058604
20	0xbd373cc1	-0.044735674
21	0xbc00b089	-0.007854589
22	0xbd0cd251	-0.03438026
23	0xbd3c17e8	-0.045921236
24	0x3d98e0d9	0.07464761
25	0xbd9e861e	-0.077404246
26	0x3d11ec20	0.035625577
27	0x3c81c7c7	0.015842332
28	0x3ce76a23	0.028248852
29	0xbca1bd5e	-0.019743618
30	0x3c8b7786	0.017024767
31	0xbd0cecac	-0.034405395
32	0x3d3432e4	0.043993846
33	0x3b1f27eb	0.0024285268
34	0xbd8432f6	-0.064550325
35	0xbd467d7d	-0.04845952
36	0x3cbb928a	0.022897024
37	0xbd87ebc5	-0.06636766
38	0xbd85450b	-0.065073095
39	0x3d696b70	0.056987226
40	0xbd1cd123	-0.038285386
41	0x3caf5b26	0.021405768
42	0xbd40e3c8	-0.04709223
43	0xbcc6003b	-0.024170032
44	0xbd9be311	-0.07611669
45	0xbd37e101	-0.044892315
46	0xbccc8ede	-0.024970468
47	0x3d858bba	0.06520791
48	0x3cf85ddc	0.030318193
49	0xbd3c9a68	-0.04604569
50	0x3d23f50a	0.04002861
51	0xbd667276	-0.056261502
52	0xbd802a43	-0.06258061
53	0xbcc1c1d8	-0.023652002
54	0xbd818ce9	-0.063257046
55	0xbc94ded0	-0.018172652
56	0xbd5a574f	-0.05330592
57	0xbc6114b2	-0.013737844
58	0x3d3aebdc	0.04563509
59	0x3d70f956	0.058831535
60	0x3d2fa649	0.04288319
61	0xbcdd78fb	-0.027035227
62	0x3bdede08	0.0068013705
63	0x3c3f0715	0.011659403
64	0xbd884fe7	-0.06655865
65	0xbd6cca2b	-0.05780999
66	0xbd67f594	-0.056630686
67	0xbd511f55	-0.05105527
68	0xbd60233f	-0.054721113
69	0x3cde4179	0.02713083
70	0xbb93c755	-0.004509846
71	0x3ce71d63	0.028212255
72	0x3d58318d	0.05278163
73	0xbcfccb74	-0.030858733
74	0xbc961ba7	-0.018323733
75	0x3d480759	0.048835132
76	0x3bc15e7d	0.0059011565
77	0x3d8ea232	0.0696453
78	0x3c8e99dd	0.017407352
79	0x3d4a5893	0.049400877
80	0xbd8c1039	-0.06839032
81	0xbd437c42	-0.047725923
82	0xbd408ab3	-0.047007274
83	0x3be1c253	0.0068896203
84	0xbd1b45a1	-0.0379082
85	0xbd5de8fb	-0.054177266
86	0x3d285afc	0.041102394
87	0x3d227b3c	0.039668307
88	0xbd6fc6d4	-0.058539227
89	0x3d75788f	0.059929427
90	0x3d814adb	0.06313106
91	0xbcbad969	-0.022808747
92	0xbc9dfa86	-0.019284498
93	0xbc5b2b57	-0.013377032
94	0xbcc15544	-0.023600228
95	0xbd93b2d2	-0.07211842
96	0xbcfe22d6	-0.03102247
97	0xbd8f16f5	-0.069868006
98	0xbd8a788a	-0.06761272
99	0x3d31416e	0.04327529
100	0xbcfa49fd	-0.030552858
101	0x3d3655cf	0.044515427
102	0xbba54daa	-0.0050446587
103	0x3d581419	0.05275354
104	0x3c9b05b2	0.018923614
105	0x3d08263c	0.03323959
106	0xbd3279d8	-0.04357323
107	0xbd2f67b2	-0.0428235
108	0xbd1bc69a	-0.038031198
109	0xbc3a83f3	-0.011383998
110	0xbd966cd9	-0.0734498
111	0x3d760ed8	0.06007275
112	0xbb1d55a0	-0.0024007335
113	0xbabaac7e	-0.001424208
114	0xbc8152f0	-0.015786618
115	0x3d70ab71	0.05875725
116	0x3b647368	0.0034858827
117	0x3ce87155	0.028374353
118	0x3d085d79	0.033292267
119	0x3d80fa06	0.06297688
120	0x3d4c9035	0.049942214
121	0x3d4cbc51	0.04998428
122	0xbd00e342	-0.03146673
123	0x3a49ef70	0.00077032205
124	0xbd98855a	-0.0744731
125	0xbd61e50b	-0.055150073
126	0xbd0b898b	-0.034066718
127	0x3d54c6ea	0.05194751
128	0x3d02c7d9	0.03192887
129	0x3a9821d0	0.0011606757
130	0x3ba05afd	0.004893659
131	0xbd585a9c	-0.052820787
132	0xbd1e2663	-0.038610827
133	0x3d8e4481	0.0694666
134	0x3d70ca61	0.058786754
135	0xbd102bf4	-0.035198167
136	0xbd497ac1	-0.049189333
137	0x3d13e96a	0.036111273
138	0x3af0c826	0.0018370196
139	0x3ca69e47	0.020339144
140	0xbdaf2f17	-0.085539035
141	0xbcd76cbb	-0.026296964
142	0xbb567fd7	-0.0032730007
143	0xbca3115b	-0.019905737
144	0xbc938166	-0.018006038
145	0x3b8d920a	0.0043203877
146	0xbc99b716	-0.01876406
147	0x3c881671	0.016612263
148	0xbd247910	-0.040154517
149	0xbd567883	-0.052361023
150	0xbc6f5e0a	-0.014609823
151	0x3b5c5ddb	0.0033625278
152	0xbd054e96	-0.03254565
153	0x3c32fbf5	0.010924329
154	0x3d2cdbcd	0.042201806
155	0x3c9a83d7	0.018861694
156	0xbcc6e722	-0.024280135
157	0x3da1f0f5	0.07907287
158	0xbd120ece	-0.03565865
159	0xbca62b5e	-0.020284351
160	0xbc63e10f	-0.013908639
161	0xbd938645	-0.07203344
162	0x3d70505a	0.05867038
163	0x3d08dc6c	0.033413336
164	0xbc5052da	-0.012715066
165	0x3d5d7a05	0.054071445
166	0xbc2bc17b	-0.010483141
167	0x3c374db9	0.011187964
168	0x3c44e429	0.012017288
169	0x3c80226a	0.01564141
170	0x3b8c752b	0.0042864284
171	0x3d1d4fb1	0.038406078
172	0x3d94c8fd	0.07264898
173	0xbd268f5a	-0.040664054
174	0xbd153e7a	-0.036436535
175	0x3c81561a	0.015788127
176	0xbbcc4846	-0.0062342016
177	0xbd68ec80	-0.05686617
178	0x3cbe9f82	0.023269419
179	0xbc699366	-0.014256334
180	0xbce61ae8	-0.028089002
181	0x3c18dc54	0.009329874
182	0xbceda233	-0.029008007
183	0xbd8a54c3	-0.06754448
184	0x3b1d0f0f	0.0023965274
185	0xbd0383c7	-0.032108095
186	0x3bb42446	0.005497488
187	0x3d4685d5	0.048467476
188	0xbb9601af	-0.0045778374
189	0xbd0d26f6	-0.034460984
190	0xbce49aa1	-0.027905764
191	0x3d27151f	0.040791627
192	0xbc789262	-0.015171619
193	0xbcd9d287	-0.026589645
194	0x3d828e03	0.06374743
195	0x3cf96793	0.030444896
196	0x3d3c3364	0.045947447
197	0x3c412e5f	0.011790841
198	0x3c0ac5ab	0.008469979
199	0x3d9a2a72	0.07527627
200	0x3cc9253c	0.024553888
201	0xbd9376a7	-0.072003655
202	0xbd867d29	-0.06566841
203	0x3d52650c	0.051365897
204	0x3d1f83ea	0.038944162
205	0x3d242886	0.04007771
206	0xbb6f3535	-0.003650022
207	0xbcd855ce	-0.026408102
208	0x3c9f8384	0.019471891
209	0x3d97bb63	0.07408788
210	0xbd3022c8	-0.04300192
211	0xbd058b4a	-0.03260354
212	0xbd8a251d	-0.0674536
213	0x3da27da2	0.07934119
214	0xbd35beed	-0.044371534
215	0x3d8a17f3	0.06742849
216	0x3c1b937d	0.009495613
217	0x3cd0549d	0.025430972
218	0xbbf7d0fb	-0.007562754
219	0x3d671775	0.056418855
220	0x3cc72c47	0.024313105
221	0xbd761629	-0.060079727
222	0xbd01a68e	-0.03165298
223	0x3d9393ad	0.07205901
224	0xbc3e70ec	-0.011623602
225	0x3d0682e0	0.032839656
226	0x3d2629e9	0.040567312
227	0x3d7c901e	0.06166088
228	0xbd77ba17	-0.060480203
229	0x3ccadbdc	0.02476304
230	0xbd18ad80	-0.037274837
231	0x3d1b3825	0.03789534
232	0x3d99e683	0.0751467
233	0xbd4eb9af	-0.05047005
234	0x3c0d6656	0.008630356
235	0x3c0c7cf2	0.008574711
236	0xbda7384f	-0.08165037
237	0xb9bb4492	-0.00035718508
238	0x3d7e08f2	0.06202025
239	0xbce7ea02	-0.028309826
240	0x3d64df2c	0.055876896
241	0xbd4e3247	-0.050340917
242	0x3d0129ed	0.031534124
243	0xbd0b8170	-0.034058988
244	0x3d33615f	0.043794032
245	0xbd2dfa69	-0.042475138

trunk_net.0.weight f4 [128, 16]
0	0x3e17be0e	0.14818594
1	0xbe7b57d0	-0.24545217
2	0xbdba64fc	-0.091012925
3	0x3cc2ab03	0.023763185
4	0x3e0cfdd2	0.137687
5	0x3d8e7d2c	0.069574684
6	0x3bc4b590	0.0060030892
7	0xbe76be4c	-0.2409603
8	0xbd7af74f	-0.061271008
9	0x3e17b93e	0.14816758
10	0xbe1f6a7a	-0.15567961
11	0xbe2c0c34	-0.1680153
12	0x3e23ce7a	0.15996733
13	0x3e1998fc	0.14999765
14	0x3dd20ad0	0.102559686
15	0xbdcaeea8	-0.09908801
16	0x3e6c2f4b	0.23064916
17	0xbdfbc29a	-0.12292977
18	0x3e14b5c3	0.14522462
19	0x3e5db817	0.21652256
20	0x3c8ebd33	0.017424202
21	0x3ca00e83	0.01953817
22	0x3e095a7f	0.13413428
23	0x3b9c9595	0.0047785738
24	0xbcdd616d	-0.027023995
25	0xbcefa887	-0.029255165
26	0xbdb9a1dd	-0.09064076
27	0x3d8c1053	0.06839051
28	0x3d0efa13	0.034906458
29	0xbd484985	-0.04889824
30	0xbd4dcfa5	-0.050246853
31	0xbd9c6de1	-0.07638145
32	0xbe792c9d	-0.24333425
33	0xbe59242a	-0.21205202
34	0x3dc4b794	0.09605327
35	0x3e0f3522	0.13985112
36	0xbe0c3770	-0.13693023
37	0xbe238c46	-0.15971479
38	0xbd40e722	-0.047095425
39	0x3de02ef0	0.109464526
40	0xbe63fdd6	-0.222648
41	0xbbefdfcc	-0.00732038
42	0xbdd8ad80	-0.105799675
43	0x3e3dcf08	0.18536007
44	0x3e62c6b0	0.22146106
45	0x3d76c996	0.06025084
46	0xbcf11ab2	-0.029431675
47	0xbd7d6c9a	-0.06187115
48	0x3d74f2b8	0.059801787
49	0xbe3a5c2e	-0.18199226
50	0x3e53f032	0.20697096
51	0xbe09d10c	-0.13458651
52	0x3dfdbd4e	0.12389623
53	0x3d988fca	0.074493006
54	0xbcc91b4e	-0.024549153
55	0xbce0b07e	-0.027427908
56	0xbdfcaef5	-0.12338058
57	0xbe3bef5a	-0.18353024
58	0xbd972da6	-0.073817536
59	0xbd9b5bae	-0.07585846
60	0x3e80f761	0.25188735
61	0xbda4eb92	-0.08052744
62	0xbdb717d6	-0.08940093
63	0xbbff7261	-0.0077956175
64	0xbd10584e	-0.035240464
65	0x3c5e81eb	0.01358078
66	0x3e1b6ca7	0.15178166
67	0x3e4faec7	0.20281516
68	0x3c193ac7	0.0093523925
69	0xbd636c49	-0.05552319
70	0xbe0c728f	-0.13715576
71	0x3e50df8f	0.20397781
72	0xbe5f150b	-0.21785371
73	0x3dce3986	0.100695655
74	0x3df30ab4	0.11867276
75	0x3e069bff	0.13145445
76	0xbe784675	-0.24245627
77	0x3e636e0d	0.2220995
78	0x3ce332ce	0.027734187
79	0x3e27aa4f	0.16373561
80	0xbd84bc20	-0.064811945
81	0xbe1106a5	-0.14162691
82	0x3e1559b9	0.14585008
83	0x3de96100	0.113954544
84	0xbda049f4	-0.078266054
85	0xbe6f0fef	-0.23345922
86	0xbdf14332	-0.117803946
87	0xbe3bd557	-0.18343101
88	0x3dd020f0	0.10162532
89	0x3d513da0	0.05108416
90	0x3e56525d	0.20929857
91	0x3d51bc58	0.05120501
92	0x3def78d4	0.11692968
93	0x3d3ca418	0.04605493
94	0xbe6de47b	-0.2323169
95	0xbcba2a64	-0.022725292
96	0x3c76e9ae	0.015070362
97	0x3dd1b7b8	0.1024012
98	0xbe4f30cb	-0.20233457
99	0x3e623f8f	0.22094558
100	0xbcfec149	-0.031098025
101	0x3dee8d0d	0.11647997
102	0xbd9225be	-0.07136105
103	0x3e772d91	0.24138476
104	0x3ddc2f10	0.10751164
105	0x3c845477	0.016153557
106	0x3da00d20	0.078150034
107	0xbe24712d	-0.16058798
108	0xbe4c65d9	-0.19960727
109	0x3dface17	0.1224634
110	0xbded0aac	-0.11574301
111	0x3c379093	0.011203903
112	0x3d8d4be8	0.068992436
113	0xbe42f87d	-0.19040103
114	0x3e2be26d	0.16785593
115	0x3da16101	0.0787983
116	0xbda0847f	-0.078377716
117	0x3e6c4ebb	0.23076908
118	0x3da339c9	0.07970006
119	0x3dba4a09	0.09096152
120	0xbddf400f	-0.1090089
121	0xba7e3581	-0.0009697304
122	0xbdf3a0e5	-0.118959226
123	0x3dc847f9	0.09779353
124	0x3e033652	0.1281369
125	0xbe776ec1	-0.24163343
126	0x3e210eff	0.15728377
127	0xbe650a5b	-0.22367232
128	0xbda7f1a4	-0.08200386
129	0xbe78b14e	-0.24286386
130	0x3d88efa8	0.06686336
131	0xbbe4a22e	-0.006977341
132	0xbda610bc	-0.081086606
133	0xbd311a75	-0.043238122
134	0x3c281687	0.010259277
135	0xbc8310ea	-0.015999276
136	0x3dd5880c	0.104263395
137	0xbe3f4e8e	-0.1868231
138	0x3d9ee3c4	0.077582866
139	0x3e285ad4	0.16440898
140	0x3e714c1a	0.23564187
141	0x3d2157d3	0.039390396
142	0xbd9a6128	-0.07538062
143	0x3d82e550	0.06391394
144	0x3d7dd589	0.06197122
145	0xbe599e88	-0.21251881
146	0xbd09b683	-0.033621322
147	0xbe71e784	-0.23623472
148	0x3e601194	0.21881706
149	0x3e0ec23c	0.13941282
150	0x3e5bb53a	0.21455851
151	0xbe515994	-0.20444328
152	0x3de98ef1	0.11404217
153	0x3e3900a4	0.1806665
154	0x3dac0700	0.08399773
155	0xbd767372	-0.06016869
156	0xbdd438bc	-0.10362384
157	0x3dc238dc	0.09483501
158	0x3e697290	0.22797608
159	0xbcb10152	-0.021607075
160	0xbe515337	-0.204419
161	0xbd4e41bd	-0.05035566
162	0xbe40b389	-0.18818487
163	0x3e2988d5	0.16556104
164	0xbcf3ecc9	-0.029775994
165	0xbe0db6c7	-0.13839255
166	0x3dde3c2f	0.10851323
167	0x3e6cdecd	0.23131867
168	0x3db7642f	0.089546554
169	0xbd3b0cad	-0.045666385
170	0xbe45de5d	-0.19323106
171	0xbe73d398	-0.23811185
172	0x3e54988f	0.20761321
173	0xbe284403	-0.16432194
174	0x3e2e04c9	0.16994013
175	0xbe2a7f4b	-0.16650121
176	0x3e7038dd	0.23459192
177	0x3def7f90	0.116942525
178	0xbe41f13f	-0.18939684
179	0xbd0698ac	-0.032860443
180	0xbe4eb307	-0.20185481
181	0x3d672ec4	0.056441084
182	0x3e253d55	0.16136678
183	0xbe757427	-0.2397009
184	0xbe0ea875	-0.13931449
185	0xbe69c2fb	-0.22828285
186	0xbdfcd839	-0.12345929
187	0x3d3e97d4	0.046531513
188	0x3e1bb893	0.15207128
189	0xbdd000d4	-0.10156408
190	0x3e55cb1d	0.20878263
191	0x3d918ed0	0.071073174
192	0x3e731623	0.23738913
193	0xbdb1da52	-0.086842194
194	0x3ccaeafe	0.024770256
195	0x3d7f864c	0.062383935
196	0x3e3afd2f	0.18260644
197	0x3e0bfc8f	0.13670562
198	0xbdfd4ac2	-0.123677745
199	0xbe253e55	-0.16137059
200	0x3d825b32	0.063650504
201	0xbdd4870e	-0.10377322
202	0x3e443bed	0.19163485
203	0xbc6488c7	-0.013948626
204	0x3dea6006	0.11444096
205	0x3d8fa6c2	0.070142284
206	0xbe506e97	-0.20354687
207	0xbd013870	-0.031547964
208	0xbbba2d41	-0.005681664
209	0x3a8361fa	0.0010023706
210	0xbe3dfca9	-0.18553413
211	0xbe32da2f	-0.17466043
212	0xbe0980b9	-0.1342801
213	0x3d16e697	0.036841
214	0xbe2d4b8d	-0.16923352
215	0x3e622297	0.22083507
216	0xbe5da131	-0.21643521
217	0x3dc99c76	0.09844296
218	0x3e4ca7d5	0.19985898
219	0x3e54957f	0.20760153
220	0xbd9eb4c6	-0.077493235
221	0x3d0b1ca7	0.033962872
222	0x3b6108fa	0.0034337626
223	0xbcc8574b	-0.024455687
224	0xbca91a2e	-0.020642366
225	0xbe5838d1	-0.21115424
226	0x3e48118b	0.19537942
227	0xbe3958f9	-0.18100347
228	0x3dbf604b	0.09344538
229	0x3d015ab2	0.031580634
230	0xbca1aa4e	-0.019734528
231	0xbde267d1	-0.11054958
232	0xbe23504f	-0.15948604
233	0x3e4eb90d	0.20187779
234	0x3e0bd163	0.13654093
235	0xbe3a2f0f	-0.18182014
236	0xbe687507	-0.22700892
237	0xbe177275	-0.14789756
238	0xbe31d5df	-0.17366742
239	0x3d3b8d3f	0.045789
240	0x3e551bc2	0.2081137
241	0xbcbe56b9	-0.023234712
242	0xbd3d96f4	-0.04628654
243	0xbdbd7a58	-0.09251851
244	0xbddf9458	-0.10916966
245	0xbdbd5068	-0.09243852
246	0x3e660978	0.2246455
247	0x3e606cd6	0.21916518
248	0xbe5ed530	-0.21761012
249	0x3d9e13cc	0.0771862
250	0x3d22ac84	0.039715305
251	0x3e3abd28	0.1823622
252	0x3e46f104	0.19427878
253	0x3b731e8f	0.0037097072
254	0xbdbc9944	-0.092089206
255	0xbe6625c2	-0.22475341
