results/models/best_mlp.pth (torch, 322529 bytes, 6 tensors)

network.0.weight f4 [128, 246]
00000000: 062c 39bd 1fbb 0c3d 69a0 05bd e379 2bbd
00000010: 6f04 1c3c c75c f83c 237f d43c 9b1e 9a3b
00000020: e630 2cbd d6d1 563d 3762 06bd d94f b23a
00000030: 6734 073c ef7a 253d caf7 82bc b414 c83c
00000040: 6e82 f2bc 8bd2 c7bc d8b3 ad3c eb51 e53c
00000050: fa45 8ebd d9ea 27bd 53f1 37bd 1409 cbbc
00000060: fda3 f3bb e614 923b 3fe1 573d 3491 26bd
00000070: f9a1 6b3c 119b 93bc 8880 84bd e2f3 533c
00000080: e932 553d 5331 3ebc 809e 1b3d d9c3 37bd
00000090: 9a5c 5cbd 92b8 34bd 1c68 89bc f31e 5f3c
000000a0: ae39 48bd cdf7 543d 9165 633d cb3b 62bd
000000b0: dedb 88bd f180 ef3c eefc 80bd b518 563d
000000c0: 320d 68bd b7bb 203d 1051 0e3d 12b0 663d
000000d0: 2228 033c 505b 41bc f1c1 3a3c 806d 083d
000000e0: dc72 aa3c d533 253d 665a be3c 4feb 4b3b
000000f0: 3996 13bd a664 2b3d a856 d3bc b097 cf3c
00000100: bce0 0ebd aa65 62bd 6777 00bc 601b 49bd
00000110: 3613 1cbd 125a 2fbd 5656 14bd f7e4 05bc
00000120: b1cd 4dbd 10c1 233d 7bdc e3bc e333 f53c
00000130: 0c61 01bd 5d99 543b 6a84 613d a1a7 08bd
00000140: 49e1 2f3d e695 d1bc afdc 5cbc 1003 c03c
00000150: cd93 95bc f5e0 2fbd 65fc 933b 6b23 06bc
00000160: 2393 55bd 3465 5fbd 7a83 373d 207a 24bc
00000170: 95d5 293d 3161 0bbd 929e 0dbc 3676 623d
00000180: 8ef1 72bd 6663 0dbd 9f29 0fbd 6a17 4c3d
00000190: fb4e 293c 6ebd b4bc 4cf3 033d 7364 1f3d
000001a0: 9fa6 87b9 81f7 4f3d ce4d cb3c 6913 13bd
000001b0: 89fc afbc dcd7 013b cc59 6dbd e9a0 60bc
000001c0: 7ab4 b5bb 5ca4 0abd cc44 e5bc 52c5 133d
000001d0: f757 41bd 13bc 6bbd d920 74bd ecaf cc3c
000001e0: 4798 6fbd 3ddb 933b 7153 76bd 7b3a 43bd
000001f0: 4914 71bd e435 2ebd e4f9 393d 9a50 383c
00000200: a5a5 8cbd 748d 68bd c6e5 32bd 0c54 8dbd
00000210: 3d89 28bc 642a 78bd 573e 173d b1dc dc3b
00000220: 5105 61bd 9953 523c 1d8a 87bc c5a9 0b3d
00000230: 64fa 09bb a0f6 8fbc 1e08 88bd 3a09 673d
00000240: e405 2cbc c9f1 263b a5bd 623d 86ab b3bb
00000250: dcc5 45bc 6fed 023d 1876 40bd 6aab 5abb
00000260: fe18 483c 2fef 2f3d 84f8 8a3c e472 e73c
00000270: ece6 a8bc 1b0d 8f3c a5e2 a3bc 170b 463d
00000280: 4998 3cbd 70c7 5a3d 2bad f7bc da03 b5bc
00000290: be28 36bc 0543 63bd 34a9 273c 342f 29bc
000002a0: e708 24bc 30fb 3f3d 9e0d 0ebd 1c94 37bd
000002b0: f049 203d c2d6 503d ebc1 8cbc 7844 8f3c
000002c0: d718 46bd 826e 583c 388a 88bc b3d8 4a3d
000002d0: c976 8cbd 35d5 babb 16c0 b5bc 21d7 88bd
000002e0: 7225 553d f64c 153d 37e0 533c 6d4e 943c
000002f0: 06ef bfbc 73a1 41bc 7538 b53c 6327 4bbc
00000300: f4a4 8abd 0a27 2abd b7e7 11bd ba2f 083d
00000310: d253 83bd 6841 243d 4988 88bd 912b c53c
00000320: 5775 be3b bfc4 773c e8d4 bd3c 078a 8ebc
00000330: 05c2 1d3d 5caa 6ebd 0308 4cbb 9ffb d2bc
00000340: fa5f 34bb 1607 2b3d e43a 4e3d f8f0 523d
00000350: 066e 663d a88c 18bd 6d98 273d 795e 9f3c
00000360: 1e57 53bb 0eb7 653c c8ad 913c 428b e63c
00000370: 537b acbc 9430 67bd ae76 d0bc 7fd3 c5bc
00000380: 1e58 4b3c 6ae6 313d 8558 963c 4974 63bd
00000390: 4abf 77bd 7be3 03bd 36bb 72bd 88f2 62bd
000003a0: b9fa 25bc f206 17bd 0039 a73c 6b2f 4cbd
000003b0: 5920 23bd 227d 263d 24c3 b13c e6c8 8dbd
000003c0: d206 d3bc 96d3 04bd 8976 583d 3b6f 8ebd
000003d0: a514 103d 9b09 6b3d e036 8e3c 8460 75bc
000003e0: 4e20 223d 7c1e 503d 0a75 71bd aef6 aabc
000003f0: 4d8f 57bd 8041 063b 78d1 433c 0d25 6abd
-0.045208 0.03435814 -0.032623682 -0.041864287 0.009522541 0.030317677 0.02593953 0.0047033555
-0.04203882 0.05244621 -0.03280851 0.0013604119 0.00825224 0.04040044 -0.015987296 0.024423935
-0.02960321 -0.024392387 0.02120392 0.027993163 -0.06946941 -0.040995453 -0.04490788 -0.024784602
-0.0074353204 0.0044580577 0.052705046 -0.04066582 0.014381879 -0.018018277 -0.06469828 0.012936564
0.052050505 -0.0116084395 0.037992954 -0.04486451 -0.05379925 -0.044121332 -0.016773276 0.013618219
-0.048883133 0.051994134 0.055516783 -0.055232804 -0.06682561 0.029236289 -0.062982425 0.052269656
-0.05665321 0.03924152 0.034745276 0.056320257 0.008005174 -0.011801556 0.011398778 0.033307552
0.020806722 0.040332634 0.023236465 0.0031115597 -0.036031935 0.041844033 -0.025798157 0.025340885
-0.034882292 -0.055272736 -0.007840968 -0.049098372 -0.03810426 -0.042810507 -0.03621515 -0.008172265
-0.05024499 0.03997904 -0.027815094 0.029931968 -0.03158669 0.0032440044 0.05505792 -0.03336299
0.042939458 -0.025584172 -0.013480349 0.02343896 -0.018258953 -0.042939145 0.0045161718 -0.008187155
-0.052142274 -0.054539874 0.04480312 -0.0100388825 0.041463453 -0.034028236 -0.008643763 0.055288516
-0.059312396 -0.03451862 -0.034951802 0.049827017 0.010333772 -0.022062983 0.032214448 0.038914155
-0.0002587335 0.050773147 0.024817374 -0.035907183 -0.021482723 0.00198125 -0.057946965 -0.013710239
-0.005545196 -0.03384815 -0.027986906 0.03607685 -0.04720303 -0.05755241 -0.05960164 0.02498623
-0.058494832 0.004512219 -0.06013817 -0.047663193 -0.058857236 -0.042531863 0.04540433 0.011249686
-0.06867532 -0.056775525 -0.04367616 -0.06900796 -0.010286626 -0.0605873 0.036924686 0.0067401757
-0.05493671 0.012837314 -0.01654535 0.03409745 -0.0021053785 -0.017573655 -0.06642173 0.056405284
-0.010499451 0.0025473705 0.05535664 -0.0054830937 -0.012071099 0.031964716 -0.046987623 -0.003336633
0.01221299 0.042952713 0.016964205 0.028253026 -0.020617925 0.017462304 -0.020005533 0.04835042
-0.046043668 0.053412855 -0.03023394 -0.022096563 -0.011118112 -0.055483837 0.010233212 -0.0103261955
-0.010011888 0.04687041 -0.034680955 -0.044818982 0.039133012 0.05098606 -0.017182311 0.017488703
-0.048363533 0.013209941 -0.01666747 0.049523067 -0.06858594 -0.005701686 -0.02218632 -0.066816576
0.052037664 0.03645035 0.012931875 0.018103803 -0.023429405 -0.011818278 0.022121647 -0.012399527
-0.067697436 -0.041541137 -0.03562137 0.03324864 -0.06412472 0.04010144 -0.06666619 0.024068626
0.005812328 0.0151225915 0.02317281 -0.017399801 0.03851511 -0.058267936 -0.0031132705 -0.025754748
-0.0027523027 0.041754805 0.05034913 0.051499337 0.05625727 -0.037243515 0.04091685 0.019454228
-0.003224797 0.014020694 0.01778306 0.028142575 -0.0210549 -0.056442812 -0.025447216 -0.0241487
0.0124111455 0.04343263 0.018352756 -0.05553082 -0.06048516 -0.032199364 -0.05926057 -0.055407077
-0.010130578 -0.036871858 0.020412922 -0.04984991 -0.03982577 0.04064668 0.021699496 -0.06923084
-0.025760088 -0.032428347 0.05284742 -0.06954809 0.03517594 0.057382207 0.01736015 -0.014976624
0.03958159 0.050810322 -0.058949508 -0.02086958 -0.052626897 0.0020485818 0.011951797 -0.05716424

network.0.bias f4 [128]
00000000: 111e e7ba 5acc 2bbd 7263 b4ba 24de cfbb
00000010: 02e1 3cbd 0bac ceba 35d5 48bd 5cef 69bd
00000020: c2dc 0cbd e964 d6bb 1c0c 26bb 4cd4 7abb
00000030: 1628 9dbc f25a cbbb a8bb 61bb b946 2dbd
00000040: f8bc bdba eaaa 56bd b919 12bb e0a5 6ebc
00000050: d9f3 7fbc 51b0 faba 0a52 10ba 14a4 51bd
00000060: a254 8d3d e256 06bd 1612 3aba 2120 46bb
00000070: ae4b debc a839 b6bc b809 fdbc 0c3c 34bd
00000080: 5df7 883d 0a31 fb3d 7e39 98bb def2 cebc
00000090: 5e4c 89bb ebae 62bd d39a 09bd 6c31 cebc
000000a0: e476 23bb 4e3e dfbc d3bc 37bd 6b88 61bb
000000b0: 0418 00bb 3815 f0bb 542f 7cb9 76dd 67bd
000000c0: 8d3a 73bb e0ad c2ba c838 ddbc 2027 64bc
000000d0: fcdd eaba 7c43 19bc 0dcb 19bb 091d 4dbb
000000e0: c462 9dbc c21a b9bb e024 d6bb 945e 98bc
000000f0: 7a0c 07bd 5a96 cdbc 18dc 0fbb 718a 993f
00000100: 8a37 46bd 3c91 39bc ba0a 48bb 260a 45bd
00000110: a280 a6bc ec17 03ba bccb b5bc f9cd babc
00000120: 0856 fe3d 8c02 76bd 8687 3cbd 6983 2dbb
00000130: 8621 45bd a497 2ebd 6c1b 67bc 7b8e 55bb
00000140: 8d6a 3ebb 57e4 80bb 6fb0 72bc 3c82 debc
00000150: b635 b2bc 34d4 2dbd cfa6 b0bb dd50 17bc
00000160: 362d 61bd c9cc b6bb bd16 08bb 9ec0 8cbb
00000170: aacc 30bb d4f3 1ebb 4025 45bb ecab 2fbd
00000180: fd5d ab3d 00f6 7ab9 4971 a83d 7932 19bc
00000190: bb3e 75bd f94e d7ba f1b7 753d 25e9 04bd
000001a0: 3011 dfbb 78cf 3bbc e9df 4dbd e68e 19bd
000001b0: b8b2 cd3d 9b7b e4ba 00b9 8bba b99c 2fbb
000001c0: 08d8 3bbd 2901 1fbc 4083 c3ba aae2 c7bc
000001d0: df65 b23d da35 4ebd 454d 0bbb 089e 35bd
000001e0: f680 7ebd 9af3 a6bc 8999 3ebb 7885 4fbc
000001f0: ecd2 51bd 24b6 89bf a0b0 41bc 29fd 93bb
-0.0017632862 -0.04194293 -0.0013762547 -0.00634362 -0.04611302 -0.0015767826 -0.049031455 -0.057113037
-0.03439022 -0.006542791 -0.0025336808 -0.0038273511 -0.019184154 -0.00620591 -0.0034444127 -0.042303775
-0.0014475873 -0.05240909 -0.0022293164 -0.014565915 -0.015622103 -0.0019126033 -0.0005505389 -0.051181868
0.06900908 -0.0327977 -0.0007098032 -0.0030231553 -0.027135696 -0.02224429 -0.030888423 -0.044002578
0.06687806 0.12265213 -0.0046455255 -0.025262292 -0.004190012 -0.055342596 -0.033594918 -0.02517005
-0.002494269 -0.027251389 -0.04485781 -0.0034413587 -0.0019545564 -0.007326748 -0.00024050224 -0.056607686
-0.0037113756 -0.0014852844 -0.027004614 -0.013925344 -0.001791894 -0.009354468 -0.0023466975 -0.0031297824
-0.019212134 -0.0056489417 -0.0065351576 -0.018599786 -0.032970883 -0.025096107 -0.0021951254 1.1995374
-0.04839281 -0.0113261305 -0.0030523972 -0.04810538 -0.020325009 -0.0005000818 -0.022191875 -0.022803294
0.12418753 -0.060061023 -0.046027683 -0.0026476032 -0.048127674 -0.042625085 -0.014105659 -0.0032586146
-0.0029055208 -0.00393347 -0.014812573 -0.02716171 -0.021754127 -0.0424387 -0.005390979 -0.009235588
-0.054974757 -0.0055786115 -0.0020765506 -0.0042954227 -0.0026977458 -0.002425422 -0.0030082017 -0.042888567
0.08367536 -0.000239335 0.082247324 -0.0093504125 -0.059874278 -0.0016426734 0.059989873 -0.032448906
-0.006807469 -0.011463039 -0.050262365 -0.037489794 0.100438535 -0.0017431857 -0.0010659993 -0.0026796295
-0.04586032 -0.009704866 -0.0014916435 -0.024400074 0.087108366 -0.050344326 -0.0021255773 -0.044340163
-0.062134705 -0.02037983 -0.0029083213 -0.012666099 -0.05122654 -1.075871 -0.011821896 -0.004516263

network.2.weight f4 [128, 128]
00000000: 8040 79bd f63b 20bd 12a9 2b3c 0b84 133d
00000010: 2fce adbd bb43 61bd 22f7 053d 0081 df3c
00000020: 7c97 ffbc a5dc 8e3d 71d0 80bd f8ff 11bd
00000030: f9c4 2abc 5495 7bbd 471f b83c 1c56 ca3c
00000040: 533f 453d 8164 9c3d 0322 efbb ea80 cd3c
00000050: 9355 7b3c 2de2 fbbc e8aa d13c 1877 f73c
00000060: 71d3 ed3b 0869 19bc 89c7 ac3c 0b09 7c3d
00000070: 0265 c6bc 4e50 293d ce74 093d 7fca 923d
00000080: 692a 393d a598 eebb d755 c23c 629d 6c3d
00000090: 5920 9b3d bbe1 6cbd 80a9 d93a a4e9 c8bc
000000a0: 2b98 a7bd b4c8 a0bd 9f01 953d a383 95bd
000000b0: 8e9f 823c 450f efbc 11da b9bd 493f 90bd
000000c0: c127 573d 0ca1 c1bc 805e a6ba 2889 39bd
000000d0: 55f3 50bc 4411 86bc 4ce4 f3bc e7c0 363d
000000e0: 86bf 3d3d 10f5 913c cc7e 16bd e164 febc
000000f0: 40c8 253b 3848 77bd 101e 593c 63d1 d1bd
00000100: bade b1bc 967e 1c3d 87ad 27bd dc7e 0bbd
00000110: f8ae 43bd e7d3 25bd 3339 a93d d033 4cbd
00000120: 8b72 373c b4aa 0e3d 6b95 8b3d 7e5e 0ebc
00000130: 6216 3a3d d5d4 c5bd 6f30 8d3d f648 683d
00000140: 6c32 92bd d546 83bd be74 ff3b b0d3 d83b
00000150: d378 59bd 30e2 b03c f3c1 4c3d fa25 3dbd
00000160: a443 b03c baf7 1fbd 4c5e 9ebd 3c1f 8f3d
00000170: 027e c23c a2d7 b83d 6442 ed3c ccf7 a8bd
00000180: fb8e 6cbd 2c93 a83c b9e8 3bbd c712 bebd
00000190: b4cf ec3c 2f7c 84bc 6221 0e3d 3bad 873d
000001a0: 8544 8b3c c620 fa3c 78e8 c1bc 620b f3bc
000001b0: 2fb6 d1ba 2524 aabc 71c8 a53d 0f0d 3abd
000001c0: efe9 9e3d c6ec f3b9 32f5 92bd 9c86 10bd
000001d0: 154c c5bc 2195 bc3b 829f 803b 0b78 8fbd
000001e0: d367 993d a48f e5bc 76dc f1bc ee4b 593d
000001f0: d214 e53c 3793 97bd 18e1 bbbc 7f41 babb
00000200: 02d7 2d3d 022b f2bc c25a 77bd 4803 93bd
00000210: ee49 203d 6efe 4c3d 2153 4abd 1892 02bc
00000220: 521e 49bd 008b 99bb 0217 87bd 7588 99bd
00000230: 65c9 b03d 958a a1bd b217 533d 9480 d23c
00000240: 3048 e33c 0a31 6f3d 708c e33b bb6f a23d
00000250: 773a 873d b726 9f3d b602 afbd 62d3 3a3d
00000260: bab6 23bd 017f 8a3d 60ef 74bb 84d0 b73c
00000270: 3420 85bd c04a a2bc f4df 903c fe1f 2e3d
00000280: d3f5 60bd 4ee8 b6bd f054 1dbc 02b1 7dbd
00000290: 9218 783d c898 ac3c 2522 a63d 40a4 2dbb
000002a0: 92e3 683d 2d57 6bbd 254b 843d ee25 4a3d
000002b0: 806f 6c3c 96d7 62bd 2477 d8bc 5d57 993d
000002c0: 8598 b33d b907 a4bd bb6f b03d 0044 bcb9
000002d0: 1d8f 67bd 9001 41bc 9b8e 8c3d 605d e03b
000002e0: ca8f 08bd 582d 6d3c 1a7f 783d e4fc ab3c
000002f0: 7fb2 913d 7825 7e3c 09e5 913d a701 2c3d
00000300: 9e67 023d 52e1 01bd d218 123d 0871 4cbc
00000310: 182f d6bc 641a 8fbc 5010 4fbc fe65 473d
00000320: ac0d 95bc e2be 5d3d 66d6 203d 0009 d23c
00000330: 8088 fcbb 1a14 163d 7b69 853d 7a17 2dbd
00000340: 56dd 093d a0b8 b1bc 6f54 74bd 84dc 9e3c
00000350: e2ab 33bd 5aaa 613d 50ff f6bb 5496 7ebd
00000360: f029 86bc 28b9 51bc 60f7 9dbb 28c5 7dbd
00000370: 286d 23bc f4e2 cfbc 54f6 8abc 86e7 7f3d
00000380: d4f0 34bd 97d7 9b3d f287 8dbd 75fe 943d
00000390: f8f4 a5bd eca8 f63c 9222 89bd e0bb f33c
000003a0: f89c 52bc ceb1 283d 2819 0e3c 39b2 883d
000003b0: b504 973d 7ca5 e33c f19a 51bd c78f a63d
000003c0: a00c 81bb 11f6 4bbd 5023 92bd 2c62 29bd
000003d0: e185 b1bd 2ca1 d8bc bb8a 8abd 1059 c73b
000003e0: dca7 eb3c d7be 953d c6c6 2d3d f38f 01bd
000003f0: 0464 60bd 9673 f1bc a5bb b23d 02d0 5e3d
-0.060852528 -0.039119683 0.010477321 0.036014598 -0.08486592 -0.054996233 0.032706387 0.027283192
-0.031200163 0.06975678 -0.06289757 -0.0356445 -0.0104229385 -0.061421707 0.022475852 0.024699263
0.048156094 0.07636357 -0.0072977557 0.025085885 0.015340227 -0.030747497 0.02559419 0.030208156
0.007257872 -0.00936342 0.02109124 0.06153206 -0.024218086 0.04133635 0.03355866 0.07167529
0.04520646 -0.0072813802 0.023722572 0.05776728 0.07574529 -0.05783246 0.0016606301 -0.024525471
-0.081833206 -0.07850781 0.072757 -0.07300498 0.015945222 -0.029182086 -0.09074796 -0.07043321
0.052528147 -0.023636363 -0.0012692958 -0.045296818 -0.012753327 -0.016365655 -0.029771946 0.04461756
0.04632523 0.01781705 -0.036742017 -0.031053962 0.002529636 -0.060371608 0.013251796 -0.102450155
-0.02171265 0.03820666 -0.040936973 -0.03405653 -0.047774285 -0.04048529 0.08262863 -0.0498541
0.011196743 0.034830764 0.068156086 -0.008689521 0.045431502 -0.09659735 0.068940036 0.056710206
-0.071385235 -0.064099945 0.007795899 0.006617032 -0.053093743 0.02159223 0.049989652 -0.046178795
0.021516629 -0.03905461 -0.077328295 0.06988379 0.023741726 0.09025504 0.028962322 -0.082503885
-0.057753544 0.02057799 -0.04587624 -0.09280925 0.028907634 -0.016172497 0.034699805 0.06624838
0.017000446 0.030533206 -0.02367042 -0.029668514 -0.001599973 -0.020769188 0.08094872 -0.04542261
0.07759463 -0.00046524982 -0.071756735 -0.035284624 -0.02408413 0.0057550822 0.003925265 -0.07005318
0.07490506 -0.028022595 -0.02952407 0.053050928 0.02796403 -0.07401126 -0.022934482 -0.0056840773
0.042441376 -0.029561523 -0.060389288 -0.0717836 0.039133005 0.05004733 -0.049395684 -0.007969402
-0.04910118 -0.0046857595 -0.06596185 -0.0749673 0.08632163 -0.078877605 0.05153627 0.025696076
0.027744383 0.058396377 0.0069442317 0.07931467 0.06602948 0.07771056 -0.08545439 0.045611747
-0.039969184 0.06762505 -0.0037374124 0.022438295 -0.06500283 -0.019811034 0.017684914 0.04251098
-0.054921936 -0.08931027 -0.00960277 -0.061936386 0.060570307 0.021068946 0.08111981 -0.0026495606
0.056857653 -0.057456184 0.06459645 0.04935258 0.014430881 -0.05538138 -0.026423998 0.07487366
0.08769325 -0.080092855 0.08615061 -0.00035908818 -0.056532968 -0.011780158 0.06863137 0.0068470687
-0.033340253 0.014476143 0.06066809 0.020994611 0.071141236 0.015511863 0.07123763 0.041993763
0.0318371 -0.031709023 0.0356682 -0.012478121 -0.026145503 -0.017468639 -0.012638167 0.04868125
-0.018194996 0.05413712 0.039266966 0.025639057 -0.0077067018 0.036640264 0.065142594 -0.042258717
0.033658348 -0.021694481 -0.059650835 0.01939226 -0.043865092 0.0550941 -0.00753776 -0.062155083
-0.01637742 -0.012800492 -0.004820749 -0.0619556 -0.009974755 -0.025376774 -0.016963162 0.062476657
-0.044174984 0.0760948 -0.06910695 0.07275096 -0.08103365 0.030109845 -0.06696047 0.029752672
-0.012854807 0.041185193 0.00867299 0.06674618 0.07373945 0.02778887 -0.051173154 0.08132892
-0.0039382726 -0.049795214 -0.071356416 -0.04135339 -0.086681135 -0.02644404 -0.06764742 0.006083615
0.028766565 0.073117904 0.042425893 -0.03163142 -0.054782882 -0.029474061 0.087271966 0.05439759

network.2.bias f4 [128]
00000000: dd40 28bb 2748 c4bd 876e 0bbd 00a1 96bd
00000010: 9d66 8abd d539 fbbc ae1c 3cbd a3b9 c8bd
00000020: 5b41 a8bd cfd0 f8bc 2eae 48bc 51a3 daba
00000030: a4e8 9bbb a5b3 e9bc 14fa 5fbc 69c4 52bc
00000040: 06df 7abd cbbc b9bc ae9b ddb9 e796 ddbc
00000050: e2de 8ebd 91d9 ddbc 2db0 82bd c6fa 16bd
00000060: e4b1 b4bc e86b 82bd 9161 abbd efed 89bd
00000070: 4c96 05bd 80ce b7bc 8846 83bd 4741 fabc
00000080: 0b07 5cbd c0f3 33bd e2f6 88bd c47f a1bd
00000090: 685f 0fbd 8c2b 93bd a4ec b5bc 641c 7bbd
000000a0: ec05 a8bd bd35 57bd a481 b9bd 6ca5 d5bb
000000b0: b75d 63bb dc5f b2bd 4fa4 e1bd 1ecd 41bd
000000c0: 1247 0ebd febc eebb e7b3 12bd 3cdf 58bd
000000d0: 0c8a 6bbd 9d85 88bb dca7 823d 89b4 d5bc
000000e0: c0be a4bd c8f6 cabd 51f7 d6bd e346 a0bb
000000f0: 00eb 10bd 2908 cabc 7ce7 2abb 66c6 24bd
00000100: f367 ebbc 454a 20bc 25a6 80bd 07b2 39bd
00000110: dc80 58bc 50c4 40bc f544 cdbd d032 96bc
00000120: 46e3 afbc 4d30 53bc 05f4 83bb 603b afbc
00000130: 27bd 5fbd 7457 2ebb c04e 1fbb 4a68 1ebd
00000140: e26c 3abd bd07 9dbb 21da 98bc 2e82 64bd
00000150: dd70 67bd 0b63 2dbd 6ba2 aebd 488d 2cbd
00000160: f725 febc 2490 f5bc 9a0d 53bd 4558 27bc
00000170: 628b b4bd e434 82bc b1c6 92bc f494 8fbd
00000180: 0a91 98bd e568 f0bc 83be 20bd 5481 32bd
00000190: 2344 b3bc 3c1e 1cbd 923f e3bc fce2 bfbc
000001a0: 2fad d1bc d506 ccbc 8eb0 0abd d000 22bd
000001b0: 92a9 01bd 9f4f bcbd e8cb 86bd 9be4 9ebd
000001c0: d2e4 bdbb 2ce1 e3bc 0ecd b4bd 2d71 43bd
000001d0: 1158 8bbd dece 02bb 4940 1dbc 96c4 ffbd
000001e0: 162e 45bd 983b 8bbd 50d5 b1bc d2d9 16bd
000001f0: ecc4 80bc 3897 35bd fbe2 a6bc 30c7 6dbd
-0.0025673427 -0.095840745 -0.034040954 -0.07354927 -0.06757853 -0.030667225 -0.04592579 -0.098010324
-0.082155906 -0.030373005 -0.012248559 -0.0016680752 -0.0047579575 -0.028528044 -0.013670463 -0.012864211
-0.061247848 -0.022673031 -0.00042268395 -0.027049495 -0.06976105 -0.027081283 -0.06381259 -0.03686025
-0.022057481 -0.06368238 -0.08368219 -0.06734835 -0.032614037 -0.022437334 -0.06409937 -0.030548705
-0.053717654 -0.04393363 -0.06687714 -0.078856975 -0.035003096 -0.0718604 -0.022207566 -0.061306372
-0.082042545 -0.052541483 -0.0905793 -0.006519964 -0.003469331 -0.0870969 -0.110176675 -0.047314756
-0.034735747 -0.007285713 -0.0358161 -0.052947268 -0.0575047 -0.0041663186 0.06379673 -0.026087062
-0.08044195 -0.09910351 -0.104963906 -0.004891263 -0.035380363 -0.024662094 -0.0026077917 -0.04022827
-0.02873609 -0.009783332 -0.062816896 -0.045335796 -0.013214316 -0.011765555 -0.10022918 -0.018334776
-0.021470677 -0.012889934 -0.004026892 -0.021390617 -0.05462375 -0.002660242 -0.0024308413 -0.038673677
-0.045513995 -0.0047921822 -0.0186587 -0.05578821 -0.05650412 -0.042330783 -0.085270725 -0.042126924
-0.031023962 -0.029975958 -0.051526643 -0.010213916 -0.08815648 -0.01589436 -0.01791701 -0.070108324
-0.07449539 -0.029346893 -0.039244186 -0.04358037 -0.021883076 -0.03811477 -0.027740274 -0.023423664
-0.025595276 -0.024905602 -0.033859782 -0.039551556 -0.031655855 -0.09194874 -0.06581861 -0.07758447
-0.0057951 -0.027817331 -0.088281736 -0.047715355 -0.06803907 -0.0019959728 -0.009597846 -0.12488668
-0.048139654 -0.06798476 -0.02170816 -0.036828823 -0.0157189 -0.044333667 -0.020371905 -0.058051288

network.4.weight f4 [246, 128]
00000000: 81f3 233d 45cf a63c 0a16 8fbd de4e e53d
00000010: 2bde b43d 4a48 70bd ac2f 9bbd c18f 043d
00000020: f177 823d a2b0 413d 606b 4ebc 45ce 09bc
00000030: 8f61 fdbc 23dc 7c3d 4ad5 4e3c b9d8 143d
00000040: 6a26 a83c 12ef a3bd d07b 7f3c a995 333d
00000050: 783d 8cbc c58a 8ebc 181b c63c e6c4 f93c
00000060: 49a4 53ba 5c7a 82bd 5292 7ebd 3c72 f9bc
00000070: f792 33bc 4d8b 35bd 1297 263d b747 863d
00000080: 4386 983d 408f 0b3b 6084 17bd aa67 2dbd
00000090: c812 873c f02e 8f3c 0a38 1b3d 20b4 10bb
000000a0: 2201 c83d c3b9 f53c 9e71 1abd fdde 33bd
000000b0: 0d93 60bc bd5a a73d b367 ef3c c72d 6bbd
000000c0: d255 593d e7b2 403d 0dd0 aebc a0d3 133d
000000d0: 5ba7 27bd 9b1e 37bc 90a1 883d 8bde f63c
000000e0: 30a2 9abd f8da 943c 69f6 763c a3a1 8c3c
000000f0: 5397 d6bb 2812 c7bc b1f5 adbd 47aa 2cbd
00000100: 72bd 9fbd e472 a4bd e02d 5abb 375f 9f3d
00000110: 063f a0bd 7b6b f1bc 8310 40bd c3be 02bc
00000120: 627b 4abd cf5d 263c 3d87 a9bc d554 0abd
00000130: 2068 69bd 8cc0 8bbd e111 803d 9b16 42bb
00000140: a584 37bd d011 bbbc 62e2 76bd 857e 82bc
00000150: 7cb6 963c beab c5bc 416d aa3c 25e8 acbd
00000160: 330f 83bd 570e 1ebd b82b 6dbd 3886 62bc
00000170: 716a 9cbd 9d85 c1bd 68bb 81bd 095a 2dbd
00000180: 3015 19bc 72b0 fb3c 291e c1bd efaf 863d
00000190: 952a 353d 2dc8 76bc cca3 bc3c 7658 0e3d
000001a0: a559 6b3d 231a 2abd 6fcc 0e3d bd91 cbbc
000001b0: e44b b8bd de16 6d3d 2e4e 613d b3bb c03b
000001c0: 21ab 8ebd 46f7 173d e882 d93d 107d 8ebb
000001d0: 5a3e 30bb f1bb cdbd c69f 643c 3e41 163d
000001e0: ec5b 21bd eace 4c3d 5556 093d 63c7 a93d
000001f0: 2e6d 073d f73f d73d 6dcf 7b3d bfe0 64bd
00000200: 740e de3d f032 813d b200 9d3d b37d b03d
00000210: 6fb2 b43d 58e9 e6bc 0632 aa3d 8001 533d
00000220: 3577 2dbd 3b6f 833d bb2b 933d 8c67 6b3e
00000230: 0eee 2fbd 0dc4 cb3d d395 2b3c 72f9 583d
00000240: 8dc8 ecbc e161 a33d 1b6f 643e 3918 89bc
00000250: 803f a93b 47ea 89bc e8cb 82bd e53a c3bc
00000260: 3657 b53d 35a2 5abd 3d1e 813d 005d d4bb
00000270: cca9 c13c 5ccd 873e eb5a 8ebd 9542 823d
00000280: e096 c23b b6b6 713d c2b0 a33d dc84 a7bd
00000290: e01b 293c 9d09 90bd ea85 bbbb 48cf 8e3c
000002a0: 4d2d 373d 6c30 cbbc 43d2 b73c 7ada 743d
000002b0: f55a f63d 9573 03bd 01b2 1fbe 40b4 2ebc
000002c0: 8089 48bc f10a 99bd 814a 3b3e 8edc 773d
000002d0: ea52 ae3d 99c5 efbd e0e8 c6be 9ff3 6739
000002e0: 226e 43bd c220 9ebd ffd9 3a3c e491 433c
000002f0: 4c53 313d b841 513c 3a3d 42be 57bb 3c3e
00000300: eac6 8a3d 2292 c03d 2eff 7b3d 4e5a 9bbd
00000310: 8a5e 2d3d c631 49bd 9cd3 823c 2e52 60bd
00000320: 2e3b 5fbd 9d48 2c3d f68d 56bd 0910 843d
00000330: 40d1 74bd a3cd b9bd a977 983d cc0c 49bb
00000340: 9bbc 90bd b82e c93d c1d9 c03d 78e7 03bd
00000350: 1e6e 593d 1cc1 c53d 6bc3 2d3d a14e 6abd
00000360: 79a3 30bd 9560 623d ae35 96bd c37a babd
00000370: 28f7 543d a9fc 26bd fe6f 9cb9 d0b5 c0bc
00000380: a605 653d 3942 873c 8d8b 653d 9f11 883d
00000390: e10b 413d 19ab af3d 8c99 92bd 94e3 1a3c
000003a0: 298a 0ebd df5f bf3d d03d b63b 89a6 743c
000003b0: 4512 1c3d 1e97 23bd dc8a acbc ef85 993d
000003c0: 7508 563d f0c1 d8bb 4743 8cbd 0fca 4f3d
000003d0: cea8 353d 2945 543d 1d81 d33d a115 053e
000003e0: 114e 343c d851 77bc 3540 e73d 0028 493a
000003f0: 4a0f 443d 0014 a9bd 3162 943d 468d ce3d
0.040027145 0.020362506 -0.069866255 0.11196683 0.08831438 -0.05866269 -0.07577452 0.032363657
0.06370533 0.04728759 -0.012598842 -0.008410995 -0.030930309 0.061733376 0.012624094 0.036339495
0.02052613 -0.080045834 0.015593484 0.0438439 -0.017119154 -0.017400155 0.024182841 0.030489396
-0.00080734916 -0.063709944 -0.06215126 -0.030449979 -0.010960332 -0.0443223 0.040671416 0.06556647
0.074474834 0.00212951 -0.036991477 -0.04233519 0.016488448 0.017478436 0.03789524 -0.002208002
0.09765841 0.029995805 -0.03770601 -0.04391383 -0.013706935 0.08171604 0.029224252 -0.057416704
0.05306036 0.047045615 -0.02133944 0.036090493 -0.040931087 -0.0111767305 0.066714406 0.030135414
-0.07550466 0.018170819 0.015073397 0.017166918 -0.006548801 -0.02430065 -0.084941275 -0.042154577
-0.07799806 -0.08029726 -0.0033291504 0.07781833 -0.07824521 -0.029470196 -0.046890747 -0.007980051
-0.049434073 0.010154202 -0.02069437 -0.03377231 -0.056984067 -0.06823835 0.0625341 -0.0029615525
-0.044804234 -0.022835642 -0.06027449 -0.01592947 0.018397562 -0.024129745 0.02080405 -0.084427156
-0.063993834 -0.038587894 -0.05790302 -0.013825946 -0.076374896 -0.09449313 -0.06334573 -0.042322192
-0.00934343 0.030723784 -0.09429581 0.065765254 0.044230063 -0.015062374 0.023027323 0.03475233
0.05745854 -0.041528832 0.03486293 -0.024849767 -0.0899885 0.057883136 0.0550062 0.0058817505
-0.06966234 0.037101053 0.106206715 -0.0043484047 -0.0026892633 -0.100456126 0.013954109 0.036683314
-0.039394304 0.050002016 0.0335296 0.08289983 0.033063106 0.10510247 0.061477114 -0.055878397
0.108426005 0.06308544 0.07666148 0.08617725 0.08823096 -0.028187439 0.083103225 0.051515102
-0.042350013 0.064177 0.07186075 0.22988719 -0.042951636 0.09949503 0.010472733 0.052972265
-0.028904224 0.07977653 0.22308008 -0.016735183 0.0051650405 -0.016835345 -0.06386548 -0.023831794
0.08854525 -0.05337735 0.063045956 -0.006480813 0.023640536 0.26523864 -0.06950935 0.06360356
0.005938396 0.059012137 0.07992698 -0.08179638 0.010321587 -0.070330836 -0.005722751 0.017432824
0.044720937 -0.024803363 0.022439128 0.059778668 0.120290674 -0.03209265 -0.15595247 -0.010663092
-0.012239814 -0.0747279 0.1829014 0.06051307 0.08511908 -0.11707611 -0.38849545 0.00022120633
-0.047712453 -0.07721092 0.011404513 0.0119366385 0.04329233 0.012772016 -0.18968669 0.1843084
0.06776221 0.094028726 0.061522655 -0.075855836 0.042326488 -0.049119733 0.015970044 -0.054765873
-0.054499798 0.042061437 -0.05238148 0.06448371 -0.05976987 -0.09072425 0.07444698 -0.0030677794
-0.07067224 0.09823364 0.09416533 -0.032203168 0.05308353 0.09655973 0.042422693 -0.057203893
-0.04312465 0.05526789 -0.07334457 -0.09105446 0.05199352 -0.0407683 -0.0002983808 -0.023524195
0.05591359 0.01651107 0.05604129 0.06643986 0.04713047 0.08577556 -0.07158193 0.009453673
-0.03479973 0.09344458 0.005561568 0.014932283 0.03810336 -0.03993904 -0.021062307 0.07496249
0.05225416 -0.006614916 -0.0684877 0.050729807 0.044350438 0.05182377 0.10327361 0.12996532
0.011004941 -0.015095197 0.112915434 0.0007673502 0.047866143 -0.08255768 0.07245291 0.100855395

network.4.bias f4 [246]
00000000: 3ae1 44bb 360e 613c a295 b83a 5ae7 5fbb
00000010: 6b43 83bb 1579 6fbb 9a87 1c3b 4db7 583a
00000020: 464b d2bb 6f16 c5bb 3e28 273c 59ee 6bbc
00000030: 7870 2fbb 7210 393b c7d1 ebbb 6655 e53a
00000040: 9241 0cbb 1db9 b4ba b4d3 07bc 65ac 083c
00000050: e34d ba3a 100d 20bb 2539 a03a 0e8c 8e3b
00000060: 8949 143a e3e7 033c 9bd3 1bbb 6309 4dbb
00000070: dd0b b4bb 6efe 02bc 45cd 623c c9c8 18bb
00000080: cdd6 8a3b c72b 7d3a 1abd 1539 5eb0 283b
00000090: ff73 603b 4f9f dc38 e1e7 1bbb 2396 17bc
000000a0: 7c57 b23b 9677 86bb f4ed 9a3b 35f3 dbbb
000000b0: 0097 4c3b 6554 023b a774 0a3b 2744 19bc
000000c0: bc03 593b 99b7 7f3b 0d91 1cbc 1c44 b73b
000000d0: b43f 873b 388b a5ba 0262 51bb 76c5 843a
000000e0: d562 9b3b c114 07bb 2443 fd3b 7807 143b
000000f0: be53 62ba 58ae cc3b 36ad 3d3c e881 aeba
00000100: 457c 363b cfe9 c3ba 437d adba df97 84b9
00000110: e901 38bc a804 d139 5a0c d539 30e4 18bc
00000120: 6486 21b8 9ae9 85ba f750 cf3a 4b53 36bb
00000130: 1d71 6bbb fb03 4d3b f40f e2bb bcb3 29bc
00000140: b9a0 743b 40c0 533b 2fcd 65bb 60a2 7f3b
00000150: 1e73 a3bc 623d 2abb ad9b ba3b 7a7f 8f3c
00000160: f5ac 5ebc a9f3 84bb b781 8fbb 9ee9 7abb
00000170: 20a4 a1ba 3268 cdbb dc57 35ba e10d e0ba
00000180: 9800 f83b 25db c139 2cfe 32bb 14da 55bc
00000190: a05a 6138 9f31 4139 895f 1d3a a968 20bb
000001a0: 727a 5c3a ee8b 903b 8c32 f63b d301 843c
000001b0: 7a3a 1c3b a3f9 debb f385 b43b 2f4e fc3b
000001c0: de18 90bb e885 b73b d048 71bb eaac 4f3c
000001d0: 9983 a2ba c45f 90bb ac2b 273b 57de 153b
000001e0: 0eb4 1ebb 2289 00bc 9e60 a1bc 4b9c 34bb
000001f0: d9a6 9fbb 92df 24b9 590d ee3a ac04 c5bb
00000200: e4a2 9ebb 9294 db39 4dc1 113b 0596 a63b
00000210: a780 08bb 2795 16bb b66b 67bb 5f43 07ba
00000220: 4406 213c 019d 3a3b 4536 97ba 5b7b 553c
00000230: 78bc 8ebb 2487 a2ba d79a 45bb 315c cfbb
00000240: 4999 93bb 6a1f cab8 b58c b3ba 2d70 6b3b
00000250: 5d1f 6aba 3fbc 3bbc 1d3c f4bb a7e7 15bc
00000260: ba8c f13a 22c1 89bb 428d 84bc 485f 8fba
00000270: f6f5 bcba 8eda b239 de99 cdbb 942e f03b
00000280: e2e6 90bb 9dc6 a5bb dbe6 163c 500c a7ba
00000290: 8cce a3b8 dfc8 87ba f194 01bc 4a82 d13b
000002a0: 877d 30bb 5297 2abb 5887 7ebb 09e7 043c
000002b0: a0de 8a3a 6701 9bba 3db1 a9bb e225 013b
000002c0: 5ae2 2c3b 3c14 a8bb d00b 82ba 2324 323c
000002d0: c144 c4b9 5a3e 34bc 8f4b a7b9 62b2 5abb
000002e0: 9c0e e239 75a7 803a ce17 a73b dbe4 afb9
000002f0: b756 82bb 9581 7a3b ff1f f5bb ebd5 343b
00000300: 7d36 edba f2da 3d3c f525 943b 3ed9 b03b
00000310: f94e e13b 9a06 a0bb c43f 7739 b161 c03b
00000320: a804 913b cdf9 023c 362a acbb f42b f4ba
00000330: 9cd1 cf3a 62fe 0d3b 58d7 053c ce55 8e3b
00000340: 6f54 d43b b36b d53b 9181 b3bb d722 7c3b
00000350: 3538 bd3a bfaf d13b 8247 023b 6aba 573b
00000360: 2c2d 5f3b 20bb e4bb 026e e3ba 8c6a 323b
00000370: eb06 45bb 1cd9 bebb cfa9 0c3b 7911 cd3b
00000380: 26e1 063c 43df c23b 4ac6 96ba b465 a73b
00000390: 1adf 23b9 2e59 adba 9b31 bf3a 1a2a 133c
000003a0: 7374 24bb e6ee a2bb a289 0bbb 42eb 453b
000003b0: 5e2d 04bb 0ae4 de3a 09dd 4b3b 4544 c9ba
000003c0: 35b1 163b 3c25 13bc 5f82 c83b 2ba6 a43b
000003d0: 0eaa dc3a 9ba5 973b
-0.0030041472 0.013736298 0.001408268 -0.0034164996 -0.0040058396 -0.0036540676 0.0023884536 0.000826706
-0.0064176647 -0.006014637 0.010202466 -0.014400088 -0.0026769917 0.0028238562 -0.0071966383 0.0017496764
-0.0021401388 -0.0013788078 -0.00829022 0.008341883 0.0014213886 -0.0024421848 0.0012224062 0.004350192
0.00056567095 0.008050892 -0.002377725 -0.0031286112 -0.0054945783 -0.007995231 0.013842885 -0.0023313037
0.004237032 0.00096577074 0.00014280193 0.0025739889 0.0034248827 0.00010520091 -0.0023789334 -0.009252104
0.005442558 -0.004103611 0.0047280733 -0.006712342 0.0031217933 0.001988673 0.002112666 -0.009354628
0.0033113798 0.0039019345 -0.009556067 0.005592836 0.004127467 -0.0012629991 -0.0031949286 0.0010129649
0.0047420063 -0.0020611736 0.007728951 0.002258746 -0.00086336944 0.0062463693 0.011576941 -0.0013313862
0.0027845067 -0.0014947 -0.0013236183 -0.00025290155 -0.011230924 0.00039867056 0.00040635729 -0.009331748
-3.8510552e-05 -0.0010216713 0.0015816976 -0.0027820643 -0.0035925575 0.003128289 -0.0068988744 -0.010357793
0.0037327243 0.0032310635 -0.0035064926 0.0039006695 -0.019952353 -0.0025976528 0.0056948275 0.01751684
-0.013591041 -0.004057367 -0.004379477 -0.003828622 -0.0012332238 -0.0062685246 -0.0006917694 -0.001709398
0.00756843 0.00036975104 -0.0027312143 -0.013052482 5.372858e-05 0.000184244 0.00060033106 -0.0024476445
0.000841058 0.004411212 0.00751335 0.016114151 0.0023838566 -0.0068046614 0.005509132 0.00769975
-0.0043974956 0.0056006797 -0.0036817081 0.012675503 -0.0012398838 -0.0044059474 0.0025508208 0.002286812
-0.0024216208 -0.007845195 -0.019699391 -0.0027558978 -0.0048721847 -0.00015723545 0.0018161937 -0.00601252
-0.0048411954 0.0004188163 0.002224046 0.0050838017 -0.0020828636 -0.0022977085 -0.0035312003 -0.00051598804
0.009828154 0.002847493 -0.0011536559 0.0130298985 -0.0043559633 -0.0012399894 -0.0030152106 -0.0063281287
-0.004504357 -9.637962e-05 -0.001369855 0.0035925016 -0.0008931065 -0.011458456 -0.007453455 -0.0091494685
0.0018428781 -0.0042039314 -0.016180638 -0.001093843 -0.0014416564 0.00034113642 -0.006274446 0.0073297713
-0.0044220546 -0.005059077 0.009210314 -0.0012744758 -7.810918e-05 -0.0010359547 -0.007909046 0.0063937055
-0.002693029 -0.0026030135 -0.0038837995 0.008111724 0.0010594912 -0.001182598 -0.005178599 0.0019706418
0.0026380033 -0.0051293653 -0.0009921733 0.0108728735 -0.0003743526 -0.011001194 -0.00031909018 -0.0033370485
0.00043116964 0.0009815531 0.0050992733 -0.00033549112 -0.0039776224 0.003822421 -0.007480621 0.0027593325
-0.0018097904 0.011587845 0.0045211264 0.005396991 0.0068758694 -0.0048835995 0.0002357951 0.0058710207
0.004425604 0.007994127 -0.0052540554 -0.0018628822 0.0015855315 0.0021666517 0.008169018 0.004343725
0.006479792 0.006513083 -0.005478092 0.0038472915 0.0014436307 0.0063991244 0.0019879048 0.0032917508
0.0034054024 -0.006980315 -0.001735151 0.0027224151 -0.0030063938 -0.0058242213 0.0021463518 0.0062581864
0.0082323905 0.005947025 -0.0011503187 0.0051085595 -0.00015628003 -0.001322543 0.0014586927 0.008982206
-0.0025093823 -0.0049723266 -0.0021291752 0.003020004 -0.0020168643 0.0017005217 0.003110709 -0.0015355429
0.0022993807 -0.008981045 0.006119057 0.0050246916 0.0016835348 0.004627896
